<?xml version="1.0"?>
<net name="Model0" version="11">
	<layers>
		<layer id="0" name="x" type="Parameter" version="opset1">
			<data shape="1,3,640,640" element_type="f32" />
			<output>
				<port id="0" precision="FP32" names="x">
					<dim>1</dim>
					<dim>3</dim>
					<dim>640</dim>
					<dim>640</dim>
				</port>
			</output>
		</layer>
		<layer id="1" name="__module.model.28/aten::unsqueeze/Unsqueeze" type="Const" version="opset1">
			<data element_type="f32" shape="1, 2, 34000" offset="0" size="272000" />
			<output>
				<port id="0" precision="FP32" names="1425,anchor_points">
					<dim>1</dim>
					<dim>2</dim>
					<dim>34000</dim>
				</port>
			</output>
		</layer>
		<layer id="2" name="x/fq_output_0/input_low" type="Const" version="opset1">
			<data element_type="f32" shape="" offset="272000" size="4" />
			<output>
				<port id="0" precision="FP32" />
			</output>
		</layer>
		<layer id="3" name="x/fq_output_0/input_high" type="Const" version="opset1">
			<data element_type="f32" shape="" offset="272004" size="4" />
			<output>
				<port id="0" precision="FP32" />
			</output>
		</layer>
		<layer id="4" name="x/fq_output_0/output_low" type="Const" version="opset1">
			<data element_type="f32" shape="" offset="272000" size="4" />
			<output>
				<port id="0" precision="FP32" />
			</output>
		</layer>
		<layer id="5" name="x/fq_output_0/output_high" type="Const" version="opset1">
			<data element_type="f32" shape="" offset="272004" size="4" />
			<output>
				<port id="0" precision="FP32" />
			</output>
		</layer>
		<layer id="6" name="x/fq_output_0" type="FakeQuantize" version="opset1">
			<data levels="256" auto_broadcast="numpy" />
			<input>
				<port id="0" precision="FP32">
					<dim>1</dim>
					<dim>3</dim>
					<dim>640</dim>
					<dim>640</dim>
				</port>
				<port id="1" precision="FP32" />
				<port id="2" precision="FP32" />
				<port id="3" precision="FP32" />
				<port id="4" precision="FP32" />
			</input>
			<output>
				<port id="5" precision="FP32">
					<dim>1</dim>
					<dim>3</dim>
					<dim>640</dim>
					<dim>640</dim>
				</port>
			</output>
		</layer>
		<layer id="7" name="Constant_572435" type="Const" version="opset1">
			<data element_type="i8" shape="48, 3, 3, 3" offset="272008" size="1296" />
			<output>
				<port id="0" precision="I8">
					<dim>48</dim>
					<dim>3</dim>
					<dim>3</dim>
					<dim>3</dim>
				</port>
			</output>
		</layer>
		<layer id="8" name="Convert_572436" type="Convert" version="opset1">
			<data destination_type="f32" />
			<input>
				<port id="0" precision="I8">
					<dim>48</dim>
					<dim>3</dim>
					<dim>3</dim>
					<dim>3</dim>
				</port>
			</input>
			<output>
				<port id="1" precision="FP32">
					<dim>48</dim>
					<dim>3</dim>
					<dim>3</dim>
					<dim>3</dim>
				</port>
			</output>
		</layer>
		<layer id="9" name="Constant_572437" type="Const" version="opset1">
			<data element_type="f32" shape="48, 1, 1, 1" offset="273304" size="192" />
			<output>
				<port id="0" precision="FP32">
					<dim>48</dim>
					<dim>1</dim>
					<dim>1</dim>
					<dim>1</dim>
				</port>
			</output>
		</layer>
		<layer id="10" name="__module.model.0.conv/aten::_convolution/Convolution/fq_weights_1" type="Multiply" version="opset1">
			<data auto_broadcast="numpy" />
			<input>
				<port id="0" precision="FP32">
					<dim>48</dim>
					<dim>3</dim>
					<dim>3</dim>
					<dim>3</dim>
				</port>
				<port id="1" precision="FP32">
					<dim>48</dim>
					<dim>1</dim>
					<dim>1</dim>
					<dim>1</dim>
				</port>
			</input>
			<output>
				<port id="2" precision="FP32">
					<dim>48</dim>
					<dim>3</dim>
					<dim>3</dim>
					<dim>3</dim>
				</port>
			</output>
		</layer>
		<layer id="11" name="__module.model.0.conv/aten::_convolution/Convolution" type="Convolution" version="opset1">
			<data strides="2, 2" dilations="1, 1" pads_begin="1, 1" pads_end="1, 1" auto_pad="explicit" />
			<input>
				<port id="0" precision="FP32">
					<dim>1</dim>
					<dim>3</dim>
					<dim>640</dim>
					<dim>640</dim>
				</port>
				<port id="1" precision="FP32">
					<dim>48</dim>
					<dim>3</dim>
					<dim>3</dim>
					<dim>3</dim>
				</port>
			</input>
			<output>
				<port id="2" precision="FP32">
					<dim>1</dim>
					<dim>48</dim>
					<dim>320</dim>
					<dim>320</dim>
				</port>
			</output>
		</layer>
		<layer id="12" name="__module.model.0.conv/aten::_convolution/Reshape" type="Const" version="opset1">
			<data element_type="f32" shape="1, 48, 1, 1" offset="273496" size="192" />
			<output>
				<port id="0" precision="FP32">
					<dim>1</dim>
					<dim>48</dim>
					<dim>1</dim>
					<dim>1</dim>
				</port>
			</output>
		</layer>
		<layer id="13" name="__module.model.0.conv/aten::_convolution/Add" type="Add" version="opset1">
			<data auto_broadcast="numpy" />
			<input>
				<port id="0" precision="FP32">
					<dim>1</dim>
					<dim>48</dim>
					<dim>320</dim>
					<dim>320</dim>
				</port>
				<port id="1" precision="FP32">
					<dim>1</dim>
					<dim>48</dim>
					<dim>1</dim>
					<dim>1</dim>
				</port>
			</input>
			<output>
				<port id="2" precision="FP32" names="107_1">
					<dim>1</dim>
					<dim>48</dim>
					<dim>320</dim>
					<dim>320</dim>
				</port>
			</output>
		</layer>
		<layer id="14" name="__module.model.28.cv3.3.1.act/aten::silu_/Swish" type="Swish" version="opset4">
			<input>
				<port id="0" precision="FP32">
					<dim>1</dim>
					<dim>48</dim>
					<dim>320</dim>
					<dim>320</dim>
				</port>
			</input>
			<output>
				<port id="1" precision="FP32" names="107,input.1">
					<dim>1</dim>
					<dim>48</dim>
					<dim>320</dim>
					<dim>320</dim>
				</port>
			</output>
		</layer>
		<layer id="15" name="__module.model.28.cv3.3.1.act/aten::silu_/Swish/fq_output_0/input_low" type="Const" version="opset1">
			<data element_type="f32" shape="" offset="273688" size="4" />
			<output>
				<port id="0" precision="FP32" />
			</output>
		</layer>
		<layer id="16" name="__module.model.28.cv3.3.1.act/aten::silu_/Swish/fq_output_0/input_high" type="Const" version="opset1">
			<data element_type="f32" shape="" offset="273692" size="4" />
			<output>
				<port id="0" precision="FP32" />
			</output>
		</layer>
		<layer id="17" name="__module.model.28.cv3.3.1.act/aten::silu_/Swish/fq_output_0/output_low" type="Const" version="opset1">
			<data element_type="f32" shape="" offset="273688" size="4" />
			<output>
				<port id="0" precision="FP32" />
			</output>
		</layer>
		<layer id="18" name="__module.model.28.cv3.3.1.act/aten::silu_/Swish/fq_output_0/output_high" type="Const" version="opset1">
			<data element_type="f32" shape="" offset="273692" size="4" />
			<output>
				<port id="0" precision="FP32" />
			</output>
		</layer>
		<layer id="19" name="__module.model.28.cv3.3.1.act/aten::silu_/Swish/fq_output_0" type="FakeQuantize" version="opset1">
			<data levels="256" auto_broadcast="numpy" />
			<input>
				<port id="0" precision="FP32">
					<dim>1</dim>
					<dim>48</dim>
					<dim>320</dim>
					<dim>320</dim>
				</port>
				<port id="1" precision="FP32" />
				<port id="2" precision="FP32" />
				<port id="3" precision="FP32" />
				<port id="4" precision="FP32" />
			</input>
			<output>
				<port id="5" precision="FP32">
					<dim>1</dim>
					<dim>48</dim>
					<dim>320</dim>
					<dim>320</dim>
				</port>
			</output>
		</layer>
		<layer id="20" name="Constant_572439" type="Const" version="opset1">
			<data element_type="i8" shape="96, 48, 3, 3" offset="273696" size="41472" />
			<output>
				<port id="0" precision="I8">
					<dim>96</dim>
					<dim>48</dim>
					<dim>3</dim>
					<dim>3</dim>
				</port>
			</output>
		</layer>
		<layer id="21" name="Convert_572440" type="Convert" version="opset1">
			<data destination_type="f32" />
			<input>
				<port id="0" precision="I8">
					<dim>96</dim>
					<dim>48</dim>
					<dim>3</dim>
					<dim>3</dim>
				</port>
			</input>
			<output>
				<port id="1" precision="FP32">
					<dim>96</dim>
					<dim>48</dim>
					<dim>3</dim>
					<dim>3</dim>
				</port>
			</output>
		</layer>
		<layer id="22" name="Constant_572441" type="Const" version="opset1">
			<data element_type="f32" shape="96, 1, 1, 1" offset="315168" size="384" />
			<output>
				<port id="0" precision="FP32">
					<dim>96</dim>
					<dim>1</dim>
					<dim>1</dim>
					<dim>1</dim>
				</port>
			</output>
		</layer>
		<layer id="23" name="__module.model.1.conv/aten::_convolution/Convolution/fq_weights_1" type="Multiply" version="opset1">
			<data auto_broadcast="numpy" />
			<input>
				<port id="0" precision="FP32">
					<dim>96</dim>
					<dim>48</dim>
					<dim>3</dim>
					<dim>3</dim>
				</port>
				<port id="1" precision="FP32">
					<dim>96</dim>
					<dim>1</dim>
					<dim>1</dim>
					<dim>1</dim>
				</port>
			</input>
			<output>
				<port id="2" precision="FP32">
					<dim>96</dim>
					<dim>48</dim>
					<dim>3</dim>
					<dim>3</dim>
				</port>
			</output>
		</layer>
		<layer id="24" name="__module.model.1.conv/aten::_convolution/Convolution" type="Convolution" version="opset1">
			<data strides="2, 2" dilations="1, 1" pads_begin="1, 1" pads_end="1, 1" auto_pad="explicit" />
			<input>
				<port id="0" precision="FP32">
					<dim>1</dim>
					<dim>48</dim>
					<dim>320</dim>
					<dim>320</dim>
				</port>
				<port id="1" precision="FP32">
					<dim>96</dim>
					<dim>48</dim>
					<dim>3</dim>
					<dim>3</dim>
				</port>
			</input>
			<output>
				<port id="2" precision="FP32">
					<dim>1</dim>
					<dim>96</dim>
					<dim>160</dim>
					<dim>160</dim>
				</port>
			</output>
		</layer>
		<layer id="25" name="__module.model.1.conv/aten::_convolution/Reshape" type="Const" version="opset1">
			<data element_type="f32" shape="1, 96, 1, 1" offset="315552" size="384" />
			<output>
				<port id="0" precision="FP32">
					<dim>1</dim>
					<dim>96</dim>
					<dim>1</dim>
					<dim>1</dim>
				</port>
			</output>
		</layer>
		<layer id="26" name="__module.model.1.conv/aten::_convolution/Add" type="Add" version="opset1">
			<data auto_broadcast="numpy" />
			<input>
				<port id="0" precision="FP32">
					<dim>1</dim>
					<dim>96</dim>
					<dim>160</dim>
					<dim>160</dim>
				</port>
				<port id="1" precision="FP32">
					<dim>1</dim>
					<dim>96</dim>
					<dim>1</dim>
					<dim>1</dim>
				</port>
			</input>
			<output>
				<port id="2" precision="FP32" names="121_1">
					<dim>1</dim>
					<dim>96</dim>
					<dim>160</dim>
					<dim>160</dim>
				</port>
			</output>
		</layer>
		<layer id="27" name="__module.model.28.cv3.3.1.act/aten::silu_/Swish_1" type="Swish" version="opset4">
			<input>
				<port id="0" precision="FP32">
					<dim>1</dim>
					<dim>96</dim>
					<dim>160</dim>
					<dim>160</dim>
				</port>
			</input>
			<output>
				<port id="1" precision="FP32" names="121,input.5">
					<dim>1</dim>
					<dim>96</dim>
					<dim>160</dim>
					<dim>160</dim>
				</port>
			</output>
		</layer>
		<layer id="28" name="__module.model.28.cv3.3.1.act/aten::silu_/Swish_1/fq_output_0/input_low" type="Const" version="opset1">
			<data element_type="f32" shape="" offset="315936" size="4" />
			<output>
				<port id="0" precision="FP32" />
			</output>
		</layer>
		<layer id="29" name="__module.model.28.cv3.3.1.act/aten::silu_/Swish_1/fq_output_0/input_high" type="Const" version="opset1">
			<data element_type="f32" shape="" offset="315940" size="4" />
			<output>
				<port id="0" precision="FP32" />
			</output>
		</layer>
		<layer id="30" name="__module.model.28.cv3.3.1.act/aten::silu_/Swish_1/fq_output_0/output_low" type="Const" version="opset1">
			<data element_type="f32" shape="" offset="315936" size="4" />
			<output>
				<port id="0" precision="FP32" />
			</output>
		</layer>
		<layer id="31" name="__module.model.28.cv3.3.1.act/aten::silu_/Swish_1/fq_output_0/output_high" type="Const" version="opset1">
			<data element_type="f32" shape="" offset="315940" size="4" />
			<output>
				<port id="0" precision="FP32" />
			</output>
		</layer>
		<layer id="32" name="__module.model.28.cv3.3.1.act/aten::silu_/Swish_1/fq_output_0" type="FakeQuantize" version="opset1">
			<data levels="256" auto_broadcast="numpy" />
			<input>
				<port id="0" precision="FP32">
					<dim>1</dim>
					<dim>96</dim>
					<dim>160</dim>
					<dim>160</dim>
				</port>
				<port id="1" precision="FP32" />
				<port id="2" precision="FP32" />
				<port id="3" precision="FP32" />
				<port id="4" precision="FP32" />
			</input>
			<output>
				<port id="5" precision="FP32">
					<dim>1</dim>
					<dim>96</dim>
					<dim>160</dim>
					<dim>160</dim>
				</port>
			</output>
		</layer>
		<layer id="33" name="Constant_572443" type="Const" version="opset1">
			<data element_type="i8" shape="96, 96, 1, 1" offset="315944" size="9216" />
			<output>
				<port id="0" precision="I8">
					<dim>96</dim>
					<dim>96</dim>
					<dim>1</dim>
					<dim>1</dim>
				</port>
			</output>
		</layer>
		<layer id="34" name="Convert_572444" type="Convert" version="opset1">
			<data destination_type="f32" />
			<input>
				<port id="0" precision="I8">
					<dim>96</dim>
					<dim>96</dim>
					<dim>1</dim>
					<dim>1</dim>
				</port>
			</input>
			<output>
				<port id="1" precision="FP32">
					<dim>96</dim>
					<dim>96</dim>
					<dim>1</dim>
					<dim>1</dim>
				</port>
			</output>
		</layer>
		<layer id="35" name="Constant_572445" type="Const" version="opset1">
			<data element_type="f32" shape="96, 1, 1, 1" offset="325160" size="384" />
			<output>
				<port id="0" precision="FP32">
					<dim>96</dim>
					<dim>1</dim>
					<dim>1</dim>
					<dim>1</dim>
				</port>
			</output>
		</layer>
		<layer id="36" name="__module.model.2.cv1.conv/aten::_convolution/Convolution/fq_weights_1" type="Multiply" version="opset1">
			<data auto_broadcast="numpy" />
			<input>
				<port id="0" precision="FP32">
					<dim>96</dim>
					<dim>96</dim>
					<dim>1</dim>
					<dim>1</dim>
				</port>
				<port id="1" precision="FP32">
					<dim>96</dim>
					<dim>1</dim>
					<dim>1</dim>
					<dim>1</dim>
				</port>
			</input>
			<output>
				<port id="2" precision="FP32">
					<dim>96</dim>
					<dim>96</dim>
					<dim>1</dim>
					<dim>1</dim>
				</port>
			</output>
		</layer>
		<layer id="37" name="__module.model.2.cv1.conv/aten::_convolution/Convolution" type="Convolution" version="opset1">
			<data strides="1, 1" dilations="1, 1" pads_begin="0, 0" pads_end="0, 0" auto_pad="explicit" />
			<input>
				<port id="0" precision="FP32">
					<dim>1</dim>
					<dim>96</dim>
					<dim>160</dim>
					<dim>160</dim>
				</port>
				<port id="1" precision="FP32">
					<dim>96</dim>
					<dim>96</dim>
					<dim>1</dim>
					<dim>1</dim>
				</port>
			</input>
			<output>
				<port id="2" precision="FP32">
					<dim>1</dim>
					<dim>96</dim>
					<dim>160</dim>
					<dim>160</dim>
				</port>
			</output>
		</layer>
		<layer id="38" name="__module.model.2.cv1.conv/aten::_convolution/Reshape" type="Const" version="opset1">
			<data element_type="f32" shape="1, 96, 1, 1" offset="325544" size="384" />
			<output>
				<port id="0" precision="FP32">
					<dim>1</dim>
					<dim>96</dim>
					<dim>1</dim>
					<dim>1</dim>
				</port>
			</output>
		</layer>
		<layer id="39" name="__module.model.2.cv1.conv/aten::_convolution/Add" type="Add" version="opset1">
			<data auto_broadcast="numpy" />
			<input>
				<port id="0" precision="FP32">
					<dim>1</dim>
					<dim>96</dim>
					<dim>160</dim>
					<dim>160</dim>
				</port>
				<port id="1" precision="FP32">
					<dim>1</dim>
					<dim>96</dim>
					<dim>1</dim>
					<dim>1</dim>
				</port>
			</input>
			<output>
				<port id="2" precision="FP32" names="141_1">
					<dim>1</dim>
					<dim>96</dim>
					<dim>160</dim>
					<dim>160</dim>
				</port>
			</output>
		</layer>
		<layer id="40" name="__module.model.28.cv3.3.1.act/aten::silu_/Swish_2" type="Swish" version="opset4">
			<input>
				<port id="0" precision="FP32">
					<dim>1</dim>
					<dim>96</dim>
					<dim>160</dim>
					<dim>160</dim>
				</port>
			</input>
			<output>
				<port id="1" precision="FP32" names="141,input.9">
					<dim>1</dim>
					<dim>96</dim>
					<dim>160</dim>
					<dim>160</dim>
				</port>
			</output>
		</layer>
		<layer id="41" name="__module.model.28.cv3.3.1.act/aten::silu_/Swish_2/fq_output_0/input_low" type="Const" version="opset1">
			<data element_type="f32" shape="" offset="325928" size="4" />
			<output>
				<port id="0" precision="FP32" />
			</output>
		</layer>
		<layer id="42" name="__module.model.28.cv3.3.1.act/aten::silu_/Swish_2/fq_output_0/input_high" type="Const" version="opset1">
			<data element_type="f32" shape="" offset="325932" size="4" />
			<output>
				<port id="0" precision="FP32" />
			</output>
		</layer>
		<layer id="43" name="__module.model.28.cv3.3.1.act/aten::silu_/Swish_2/fq_output_0/output_low" type="Const" version="opset1">
			<data element_type="f32" shape="" offset="325928" size="4" />
			<output>
				<port id="0" precision="FP32" />
			</output>
		</layer>
		<layer id="44" name="__module.model.28.cv3.3.1.act/aten::silu_/Swish_2/fq_output_0/output_high" type="Const" version="opset1">
			<data element_type="f32" shape="" offset="325932" size="4" />
			<output>
				<port id="0" precision="FP32" />
			</output>
		</layer>
		<layer id="45" name="__module.model.28.cv3.3.1.act/aten::silu_/Swish_2/fq_output_0" type="FakeQuantize" version="opset1">
			<data levels="256" auto_broadcast="numpy" />
			<input>
				<port id="0" precision="FP32">
					<dim>1</dim>
					<dim>96</dim>
					<dim>160</dim>
					<dim>160</dim>
				</port>
				<port id="1" precision="FP32" />
				<port id="2" precision="FP32" />
				<port id="3" precision="FP32" />
				<port id="4" precision="FP32" />
			</input>
			<output>
				<port id="5" precision="FP32">
					<dim>1</dim>
					<dim>96</dim>
					<dim>160</dim>
					<dim>160</dim>
				</port>
			</output>
		</layer>
		<layer id="46" name="127" type="Const" version="opset1">
			<data element_type="i64" shape="" offset="325936" size="8" />
			<output>
				<port id="0" precision="I64" names="127" />
			</output>
		</layer>
		<layer id="47" name="Constant_227" type="Const" version="opset1">
			<data element_type="i64" shape="2" offset="325944" size="16" />
			<output>
				<port id="0" precision="I64" names="143">
					<dim>2</dim>
				</port>
			</output>
		</layer>
		<layer id="48" name="__module.model.2/prim::ListUnpack" type="VariadicSplit" version="opset1">
			<input>
				<port id="0" precision="FP32">
					<dim>1</dim>
					<dim>96</dim>
					<dim>160</dim>
					<dim>160</dim>
				</port>
				<port id="1" precision="I64" />
				<port id="2" precision="I64">
					<dim>2</dim>
				</port>
			</input>
			<output>
				<port id="3" precision="FP32" names="145">
					<dim>1</dim>
					<dim>48</dim>
					<dim>160</dim>
					<dim>160</dim>
				</port>
				<port id="4" precision="FP32" names="146,input.11">
					<dim>1</dim>
					<dim>48</dim>
					<dim>160</dim>
					<dim>160</dim>
				</port>
			</output>
		</layer>
		<layer id="49" name="Constant_572447" type="Const" version="opset1">
			<data element_type="i8" shape="48, 48, 3, 3" offset="325960" size="20736" />
			<output>
				<port id="0" precision="I8">
					<dim>48</dim>
					<dim>48</dim>
					<dim>3</dim>
					<dim>3</dim>
				</port>
			</output>
		</layer>
		<layer id="50" name="Convert_572448" type="Convert" version="opset1">
			<data destination_type="f32" />
			<input>
				<port id="0" precision="I8">
					<dim>48</dim>
					<dim>48</dim>
					<dim>3</dim>
					<dim>3</dim>
				</port>
			</input>
			<output>
				<port id="1" precision="FP32">
					<dim>48</dim>
					<dim>48</dim>
					<dim>3</dim>
					<dim>3</dim>
				</port>
			</output>
		</layer>
		<layer id="51" name="Constant_572449" type="Const" version="opset1">
			<data element_type="f32" shape="48, 1, 1, 1" offset="346696" size="192" />
			<output>
				<port id="0" precision="FP32">
					<dim>48</dim>
					<dim>1</dim>
					<dim>1</dim>
					<dim>1</dim>
				</port>
			</output>
		</layer>
		<layer id="52" name="__module.model.2.m.0.cv1.conv/aten::_convolution/Convolution/fq_weights_1" type="Multiply" version="opset1">
			<data auto_broadcast="numpy" />
			<input>
				<port id="0" precision="FP32">
					<dim>48</dim>
					<dim>48</dim>
					<dim>3</dim>
					<dim>3</dim>
				</port>
				<port id="1" precision="FP32">
					<dim>48</dim>
					<dim>1</dim>
					<dim>1</dim>
					<dim>1</dim>
				</port>
			</input>
			<output>
				<port id="2" precision="FP32">
					<dim>48</dim>
					<dim>48</dim>
					<dim>3</dim>
					<dim>3</dim>
				</port>
			</output>
		</layer>
		<layer id="53" name="__module.model.2.m.0.cv1.conv/aten::_convolution/Convolution" type="Convolution" version="opset1">
			<data strides="1, 1" dilations="1, 1" pads_begin="1, 1" pads_end="1, 1" auto_pad="explicit" />
			<input>
				<port id="0" precision="FP32">
					<dim>1</dim>
					<dim>48</dim>
					<dim>160</dim>
					<dim>160</dim>
				</port>
				<port id="1" precision="FP32">
					<dim>48</dim>
					<dim>48</dim>
					<dim>3</dim>
					<dim>3</dim>
				</port>
			</input>
			<output>
				<port id="2" precision="FP32">
					<dim>1</dim>
					<dim>48</dim>
					<dim>160</dim>
					<dim>160</dim>
				</port>
			</output>
		</layer>
		<layer id="54" name="__module.model.2.m.0.cv1.conv/aten::_convolution/Reshape" type="Const" version="opset1">
			<data element_type="f32" shape="1, 48, 1, 1" offset="346888" size="192" />
			<output>
				<port id="0" precision="FP32">
					<dim>1</dim>
					<dim>48</dim>
					<dim>1</dim>
					<dim>1</dim>
				</port>
			</output>
		</layer>
		<layer id="55" name="__module.model.2.m.0.cv1.conv/aten::_convolution/Add" type="Add" version="opset1">
			<data auto_broadcast="numpy" />
			<input>
				<port id="0" precision="FP32">
					<dim>1</dim>
					<dim>48</dim>
					<dim>160</dim>
					<dim>160</dim>
				</port>
				<port id="1" precision="FP32">
					<dim>1</dim>
					<dim>48</dim>
					<dim>1</dim>
					<dim>1</dim>
				</port>
			</input>
			<output>
				<port id="2" precision="FP32" names="156_1">
					<dim>1</dim>
					<dim>48</dim>
					<dim>160</dim>
					<dim>160</dim>
				</port>
			</output>
		</layer>
		<layer id="56" name="__module.model.28.cv3.3.1.act/aten::silu_/Swish_3" type="Swish" version="opset4">
			<input>
				<port id="0" precision="FP32">
					<dim>1</dim>
					<dim>48</dim>
					<dim>160</dim>
					<dim>160</dim>
				</port>
			</input>
			<output>
				<port id="1" precision="FP32" names="156,input.13">
					<dim>1</dim>
					<dim>48</dim>
					<dim>160</dim>
					<dim>160</dim>
				</port>
			</output>
		</layer>
		<layer id="57" name="__module.model.28.cv3.3.1.act/aten::silu_/Swish_3/fq_output_0/input_low" type="Const" version="opset1">
			<data element_type="f32" shape="" offset="347080" size="4" />
			<output>
				<port id="0" precision="FP32" />
			</output>
		</layer>
		<layer id="58" name="__module.model.28.cv3.3.1.act/aten::silu_/Swish_3/fq_output_0/input_high" type="Const" version="opset1">
			<data element_type="f32" shape="" offset="347084" size="4" />
			<output>
				<port id="0" precision="FP32" />
			</output>
		</layer>
		<layer id="59" name="__module.model.28.cv3.3.1.act/aten::silu_/Swish_3/fq_output_0/output_low" type="Const" version="opset1">
			<data element_type="f32" shape="" offset="347080" size="4" />
			<output>
				<port id="0" precision="FP32" />
			</output>
		</layer>
		<layer id="60" name="__module.model.28.cv3.3.1.act/aten::silu_/Swish_3/fq_output_0/output_high" type="Const" version="opset1">
			<data element_type="f32" shape="" offset="347084" size="4" />
			<output>
				<port id="0" precision="FP32" />
			</output>
		</layer>
		<layer id="61" name="__module.model.28.cv3.3.1.act/aten::silu_/Swish_3/fq_output_0" type="FakeQuantize" version="opset1">
			<data levels="256" auto_broadcast="numpy" />
			<input>
				<port id="0" precision="FP32">
					<dim>1</dim>
					<dim>48</dim>
					<dim>160</dim>
					<dim>160</dim>
				</port>
				<port id="1" precision="FP32" />
				<port id="2" precision="FP32" />
				<port id="3" precision="FP32" />
				<port id="4" precision="FP32" />
			</input>
			<output>
				<port id="5" precision="FP32">
					<dim>1</dim>
					<dim>48</dim>
					<dim>160</dim>
					<dim>160</dim>
				</port>
			</output>
		</layer>
		<layer id="62" name="Constant_572451" type="Const" version="opset1">
			<data element_type="i8" shape="48, 48, 3, 3" offset="347088" size="20736" />
			<output>
				<port id="0" precision="I8">
					<dim>48</dim>
					<dim>48</dim>
					<dim>3</dim>
					<dim>3</dim>
				</port>
			</output>
		</layer>
		<layer id="63" name="Convert_572452" type="Convert" version="opset1">
			<data destination_type="f32" />
			<input>
				<port id="0" precision="I8">
					<dim>48</dim>
					<dim>48</dim>
					<dim>3</dim>
					<dim>3</dim>
				</port>
			</input>
			<output>
				<port id="1" precision="FP32">
					<dim>48</dim>
					<dim>48</dim>
					<dim>3</dim>
					<dim>3</dim>
				</port>
			</output>
		</layer>
		<layer id="64" name="Constant_572453" type="Const" version="opset1">
			<data element_type="f32" shape="48, 1, 1, 1" offset="367824" size="192" />
			<output>
				<port id="0" precision="FP32">
					<dim>48</dim>
					<dim>1</dim>
					<dim>1</dim>
					<dim>1</dim>
				</port>
			</output>
		</layer>
		<layer id="65" name="__module.model.2.m.0.cv2.conv/aten::_convolution/Convolution/fq_weights_1" type="Multiply" version="opset1">
			<data auto_broadcast="numpy" />
			<input>
				<port id="0" precision="FP32">
					<dim>48</dim>
					<dim>48</dim>
					<dim>3</dim>
					<dim>3</dim>
				</port>
				<port id="1" precision="FP32">
					<dim>48</dim>
					<dim>1</dim>
					<dim>1</dim>
					<dim>1</dim>
				</port>
			</input>
			<output>
				<port id="2" precision="FP32">
					<dim>48</dim>
					<dim>48</dim>
					<dim>3</dim>
					<dim>3</dim>
				</port>
			</output>
		</layer>
		<layer id="66" name="__module.model.2.m.0.cv2.conv/aten::_convolution/Convolution" type="Convolution" version="opset1">
			<data strides="1, 1" dilations="1, 1" pads_begin="1, 1" pads_end="1, 1" auto_pad="explicit" />
			<input>
				<port id="0" precision="FP32">
					<dim>1</dim>
					<dim>48</dim>
					<dim>160</dim>
					<dim>160</dim>
				</port>
				<port id="1" precision="FP32">
					<dim>48</dim>
					<dim>48</dim>
					<dim>3</dim>
					<dim>3</dim>
				</port>
			</input>
			<output>
				<port id="2" precision="FP32">
					<dim>1</dim>
					<dim>48</dim>
					<dim>160</dim>
					<dim>160</dim>
				</port>
			</output>
		</layer>
		<layer id="67" name="__module.model.2.m.0.cv2.conv/aten::_convolution/Reshape" type="Const" version="opset1">
			<data element_type="f32" shape="1, 48, 1, 1" offset="368016" size="192" />
			<output>
				<port id="0" precision="FP32">
					<dim>1</dim>
					<dim>48</dim>
					<dim>1</dim>
					<dim>1</dim>
				</port>
			</output>
		</layer>
		<layer id="68" name="__module.model.2.m.0.cv2.conv/aten::_convolution/Add" type="Add" version="opset1">
			<data auto_broadcast="numpy" />
			<input>
				<port id="0" precision="FP32">
					<dim>1</dim>
					<dim>48</dim>
					<dim>160</dim>
					<dim>160</dim>
				</port>
				<port id="1" precision="FP32">
					<dim>1</dim>
					<dim>48</dim>
					<dim>1</dim>
					<dim>1</dim>
				</port>
			</input>
			<output>
				<port id="2" precision="FP32" names="165_1">
					<dim>1</dim>
					<dim>48</dim>
					<dim>160</dim>
					<dim>160</dim>
				</port>
			</output>
		</layer>
		<layer id="69" name="__module.model.28.cv3.3.1.act/aten::silu_/Swish_4" type="Swish" version="opset4">
			<input>
				<port id="0" precision="FP32">
					<dim>1</dim>
					<dim>48</dim>
					<dim>160</dim>
					<dim>160</dim>
				</port>
			</input>
			<output>
				<port id="1" precision="FP32" names="165,input.17">
					<dim>1</dim>
					<dim>48</dim>
					<dim>160</dim>
					<dim>160</dim>
				</port>
			</output>
		</layer>
		<layer id="70" name="__module.model.28.cv3.3.1.act/aten::silu_/Swish_4/fq_output_0/input_low" type="Const" version="opset1">
			<data element_type="f32" shape="" offset="368208" size="4" />
			<output>
				<port id="0" precision="FP32" />
			</output>
		</layer>
		<layer id="71" name="__module.model.28.cv3.3.1.act/aten::silu_/Swish_4/fq_output_0/input_high" type="Const" version="opset1">
			<data element_type="f32" shape="" offset="368212" size="4" />
			<output>
				<port id="0" precision="FP32" />
			</output>
		</layer>
		<layer id="72" name="__module.model.28.cv3.3.1.act/aten::silu_/Swish_4/fq_output_0/output_low" type="Const" version="opset1">
			<data element_type="f32" shape="" offset="368208" size="4" />
			<output>
				<port id="0" precision="FP32" />
			</output>
		</layer>
		<layer id="73" name="__module.model.28.cv3.3.1.act/aten::silu_/Swish_4/fq_output_0/output_high" type="Const" version="opset1">
			<data element_type="f32" shape="" offset="368212" size="4" />
			<output>
				<port id="0" precision="FP32" />
			</output>
		</layer>
		<layer id="74" name="__module.model.28.cv3.3.1.act/aten::silu_/Swish_4/fq_output_0" type="FakeQuantize" version="opset1">
			<data levels="256" auto_broadcast="numpy" />
			<input>
				<port id="0" precision="FP32">
					<dim>1</dim>
					<dim>48</dim>
					<dim>160</dim>
					<dim>160</dim>
				</port>
				<port id="1" precision="FP32" />
				<port id="2" precision="FP32" />
				<port id="3" precision="FP32" />
				<port id="4" precision="FP32" />
			</input>
			<output>
				<port id="5" precision="FP32">
					<dim>1</dim>
					<dim>48</dim>
					<dim>160</dim>
					<dim>160</dim>
				</port>
			</output>
		</layer>
		<layer id="75" name="__module.model.2.m.0/aten::add/Add" type="Add" version="opset1">
			<data auto_broadcast="numpy" />
			<input>
				<port id="0" precision="FP32">
					<dim>1</dim>
					<dim>48</dim>
					<dim>160</dim>
					<dim>160</dim>
				</port>
				<port id="1" precision="FP32">
					<dim>1</dim>
					<dim>48</dim>
					<dim>160</dim>
					<dim>160</dim>
				</port>
			</input>
			<output>
				<port id="2" precision="FP32" names="167,input.19">
					<dim>1</dim>
					<dim>48</dim>
					<dim>160</dim>
					<dim>160</dim>
				</port>
			</output>
		</layer>
		<layer id="76" name="__module.model.2.m.0/aten::add/Add/fq_output_0/input_low" type="Const" version="opset1">
			<data element_type="f32" shape="" offset="325928" size="4" />
			<output>
				<port id="0" precision="FP32" />
			</output>
		</layer>
		<layer id="77" name="__module.model.2.m.0/aten::add/Add/fq_output_0/input_high" type="Const" version="opset1">
			<data element_type="f32" shape="" offset="325932" size="4" />
			<output>
				<port id="0" precision="FP32" />
			</output>
		</layer>
		<layer id="78" name="__module.model.2.m.0/aten::add/Add/fq_output_0/output_low" type="Const" version="opset1">
			<data element_type="f32" shape="" offset="325928" size="4" />
			<output>
				<port id="0" precision="FP32" />
			</output>
		</layer>
		<layer id="79" name="__module.model.2.m.0/aten::add/Add/fq_output_0/output_high" type="Const" version="opset1">
			<data element_type="f32" shape="" offset="325932" size="4" />
			<output>
				<port id="0" precision="FP32" />
			</output>
		</layer>
		<layer id="80" name="__module.model.2.m.0/aten::add/Add/fq_output_0" type="FakeQuantize" version="opset1">
			<data levels="256" auto_broadcast="numpy" />
			<input>
				<port id="0" precision="FP32">
					<dim>1</dim>
					<dim>48</dim>
					<dim>160</dim>
					<dim>160</dim>
				</port>
				<port id="1" precision="FP32" />
				<port id="2" precision="FP32" />
				<port id="3" precision="FP32" />
				<port id="4" precision="FP32" />
			</input>
			<output>
				<port id="5" precision="FP32">
					<dim>1</dim>
					<dim>48</dim>
					<dim>160</dim>
					<dim>160</dim>
				</port>
			</output>
		</layer>
		<layer id="81" name="Constant_572455" type="Const" version="opset1">
			<data element_type="i8" shape="48, 48, 3, 3" offset="368216" size="20736" />
			<output>
				<port id="0" precision="I8">
					<dim>48</dim>
					<dim>48</dim>
					<dim>3</dim>
					<dim>3</dim>
				</port>
			</output>
		</layer>
		<layer id="82" name="Convert_572456" type="Convert" version="opset1">
			<data destination_type="f32" />
			<input>
				<port id="0" precision="I8">
					<dim>48</dim>
					<dim>48</dim>
					<dim>3</dim>
					<dim>3</dim>
				</port>
			</input>
			<output>
				<port id="1" precision="FP32">
					<dim>48</dim>
					<dim>48</dim>
					<dim>3</dim>
					<dim>3</dim>
				</port>
			</output>
		</layer>
		<layer id="83" name="Constant_572457" type="Const" version="opset1">
			<data element_type="f32" shape="48, 1, 1, 1" offset="388952" size="192" />
			<output>
				<port id="0" precision="FP32">
					<dim>48</dim>
					<dim>1</dim>
					<dim>1</dim>
					<dim>1</dim>
				</port>
			</output>
		</layer>
		<layer id="84" name="__module.model.2.m.1.cv1.conv/aten::_convolution/Convolution/fq_weights_1" type="Multiply" version="opset1">
			<data auto_broadcast="numpy" />
			<input>
				<port id="0" precision="FP32">
					<dim>48</dim>
					<dim>48</dim>
					<dim>3</dim>
					<dim>3</dim>
				</port>
				<port id="1" precision="FP32">
					<dim>48</dim>
					<dim>1</dim>
					<dim>1</dim>
					<dim>1</dim>
				</port>
			</input>
			<output>
				<port id="2" precision="FP32">
					<dim>48</dim>
					<dim>48</dim>
					<dim>3</dim>
					<dim>3</dim>
				</port>
			</output>
		</layer>
		<layer id="85" name="__module.model.2.m.1.cv1.conv/aten::_convolution/Convolution" type="Convolution" version="opset1">
			<data strides="1, 1" dilations="1, 1" pads_begin="1, 1" pads_end="1, 1" auto_pad="explicit" />
			<input>
				<port id="0" precision="FP32">
					<dim>1</dim>
					<dim>48</dim>
					<dim>160</dim>
					<dim>160</dim>
				</port>
				<port id="1" precision="FP32">
					<dim>48</dim>
					<dim>48</dim>
					<dim>3</dim>
					<dim>3</dim>
				</port>
			</input>
			<output>
				<port id="2" precision="FP32">
					<dim>1</dim>
					<dim>48</dim>
					<dim>160</dim>
					<dim>160</dim>
				</port>
			</output>
		</layer>
		<layer id="86" name="__module.model.2.m.1.cv1.conv/aten::_convolution/Reshape" type="Const" version="opset1">
			<data element_type="f32" shape="1, 48, 1, 1" offset="389144" size="192" />
			<output>
				<port id="0" precision="FP32">
					<dim>1</dim>
					<dim>48</dim>
					<dim>1</dim>
					<dim>1</dim>
				</port>
			</output>
		</layer>
		<layer id="87" name="__module.model.2.m.1.cv1.conv/aten::_convolution/Add" type="Add" version="opset1">
			<data auto_broadcast="numpy" />
			<input>
				<port id="0" precision="FP32">
					<dim>1</dim>
					<dim>48</dim>
					<dim>160</dim>
					<dim>160</dim>
				</port>
				<port id="1" precision="FP32">
					<dim>1</dim>
					<dim>48</dim>
					<dim>1</dim>
					<dim>1</dim>
				</port>
			</input>
			<output>
				<port id="2" precision="FP32" names="177_1">
					<dim>1</dim>
					<dim>48</dim>
					<dim>160</dim>
					<dim>160</dim>
				</port>
			</output>
		</layer>
		<layer id="88" name="__module.model.28.cv3.3.1.act/aten::silu_/Swish_5" type="Swish" version="opset4">
			<input>
				<port id="0" precision="FP32">
					<dim>1</dim>
					<dim>48</dim>
					<dim>160</dim>
					<dim>160</dim>
				</port>
			</input>
			<output>
				<port id="1" precision="FP32" names="177,input.21">
					<dim>1</dim>
					<dim>48</dim>
					<dim>160</dim>
					<dim>160</dim>
				</port>
			</output>
		</layer>
		<layer id="89" name="__module.model.28.cv3.3.1.act/aten::silu_/Swish_5/fq_output_0/input_low" type="Const" version="opset1">
			<data element_type="f32" shape="" offset="347080" size="4" />
			<output>
				<port id="0" precision="FP32" />
			</output>
		</layer>
		<layer id="90" name="__module.model.28.cv3.3.1.act/aten::silu_/Swish_5/fq_output_0/input_high" type="Const" version="opset1">
			<data element_type="f32" shape="" offset="389336" size="4" />
			<output>
				<port id="0" precision="FP32" />
			</output>
		</layer>
		<layer id="91" name="__module.model.28.cv3.3.1.act/aten::silu_/Swish_5/fq_output_0/output_low" type="Const" version="opset1">
			<data element_type="f32" shape="" offset="347080" size="4" />
			<output>
				<port id="0" precision="FP32" />
			</output>
		</layer>
		<layer id="92" name="__module.model.28.cv3.3.1.act/aten::silu_/Swish_5/fq_output_0/output_high" type="Const" version="opset1">
			<data element_type="f32" shape="" offset="389336" size="4" />
			<output>
				<port id="0" precision="FP32" />
			</output>
		</layer>
		<layer id="93" name="__module.model.28.cv3.3.1.act/aten::silu_/Swish_5/fq_output_0" type="FakeQuantize" version="opset1">
			<data levels="256" auto_broadcast="numpy" />
			<input>
				<port id="0" precision="FP32">
					<dim>1</dim>
					<dim>48</dim>
					<dim>160</dim>
					<dim>160</dim>
				</port>
				<port id="1" precision="FP32" />
				<port id="2" precision="FP32" />
				<port id="3" precision="FP32" />
				<port id="4" precision="FP32" />
			</input>
			<output>
				<port id="5" precision="FP32">
					<dim>1</dim>
					<dim>48</dim>
					<dim>160</dim>
					<dim>160</dim>
				</port>
			</output>
		</layer>
		<layer id="94" name="Constant_572459" type="Const" version="opset1">
			<data element_type="i8" shape="48, 48, 3, 3" offset="389340" size="20736" />
			<output>
				<port id="0" precision="I8">
					<dim>48</dim>
					<dim>48</dim>
					<dim>3</dim>
					<dim>3</dim>
				</port>
			</output>
		</layer>
		<layer id="95" name="Convert_572460" type="Convert" version="opset1">
			<data destination_type="f32" />
			<input>
				<port id="0" precision="I8">
					<dim>48</dim>
					<dim>48</dim>
					<dim>3</dim>
					<dim>3</dim>
				</port>
			</input>
			<output>
				<port id="1" precision="FP32">
					<dim>48</dim>
					<dim>48</dim>
					<dim>3</dim>
					<dim>3</dim>
				</port>
			</output>
		</layer>
		<layer id="96" name="Constant_572461" type="Const" version="opset1">
			<data element_type="f32" shape="48, 1, 1, 1" offset="410076" size="192" />
			<output>
				<port id="0" precision="FP32">
					<dim>48</dim>
					<dim>1</dim>
					<dim>1</dim>
					<dim>1</dim>
				</port>
			</output>
		</layer>
		<layer id="97" name="__module.model.2.m.1.cv2.conv/aten::_convolution/Convolution/fq_weights_1" type="Multiply" version="opset1">
			<data auto_broadcast="numpy" />
			<input>
				<port id="0" precision="FP32">
					<dim>48</dim>
					<dim>48</dim>
					<dim>3</dim>
					<dim>3</dim>
				</port>
				<port id="1" precision="FP32">
					<dim>48</dim>
					<dim>1</dim>
					<dim>1</dim>
					<dim>1</dim>
				</port>
			</input>
			<output>
				<port id="2" precision="FP32">
					<dim>48</dim>
					<dim>48</dim>
					<dim>3</dim>
					<dim>3</dim>
				</port>
			</output>
		</layer>
		<layer id="98" name="__module.model.2.m.1.cv2.conv/aten::_convolution/Convolution" type="Convolution" version="opset1">
			<data strides="1, 1" dilations="1, 1" pads_begin="1, 1" pads_end="1, 1" auto_pad="explicit" />
			<input>
				<port id="0" precision="FP32">
					<dim>1</dim>
					<dim>48</dim>
					<dim>160</dim>
					<dim>160</dim>
				</port>
				<port id="1" precision="FP32">
					<dim>48</dim>
					<dim>48</dim>
					<dim>3</dim>
					<dim>3</dim>
				</port>
			</input>
			<output>
				<port id="2" precision="FP32">
					<dim>1</dim>
					<dim>48</dim>
					<dim>160</dim>
					<dim>160</dim>
				</port>
			</output>
		</layer>
		<layer id="99" name="__module.model.2.m.1.cv2.conv/aten::_convolution/Reshape" type="Const" version="opset1">
			<data element_type="f32" shape="1, 48, 1, 1" offset="410268" size="192" />
			<output>
				<port id="0" precision="FP32">
					<dim>1</dim>
					<dim>48</dim>
					<dim>1</dim>
					<dim>1</dim>
				</port>
			</output>
		</layer>
		<layer id="100" name="__module.model.2.m.1.cv2.conv/aten::_convolution/Add" type="Add" version="opset1">
			<data auto_broadcast="numpy" />
			<input>
				<port id="0" precision="FP32">
					<dim>1</dim>
					<dim>48</dim>
					<dim>160</dim>
					<dim>160</dim>
				</port>
				<port id="1" precision="FP32">
					<dim>1</dim>
					<dim>48</dim>
					<dim>1</dim>
					<dim>1</dim>
				</port>
			</input>
			<output>
				<port id="2" precision="FP32" names="186_1">
					<dim>1</dim>
					<dim>48</dim>
					<dim>160</dim>
					<dim>160</dim>
				</port>
			</output>
		</layer>
		<layer id="101" name="__module.model.28.cv3.3.1.act/aten::silu_/Swish_6" type="Swish" version="opset4">
			<input>
				<port id="0" precision="FP32">
					<dim>1</dim>
					<dim>48</dim>
					<dim>160</dim>
					<dim>160</dim>
				</port>
			</input>
			<output>
				<port id="1" precision="FP32" names="186,input.25">
					<dim>1</dim>
					<dim>48</dim>
					<dim>160</dim>
					<dim>160</dim>
				</port>
			</output>
		</layer>
		<layer id="102" name="__module.model.28.cv3.3.1.act/aten::silu_/Swish_6/fq_output_0/input_low" type="Const" version="opset1">
			<data element_type="f32" shape="" offset="410460" size="4" />
			<output>
				<port id="0" precision="FP32" />
			</output>
		</layer>
		<layer id="103" name="__module.model.28.cv3.3.1.act/aten::silu_/Swish_6/fq_output_0/input_high" type="Const" version="opset1">
			<data element_type="f32" shape="" offset="410464" size="4" />
			<output>
				<port id="0" precision="FP32" />
			</output>
		</layer>
		<layer id="104" name="__module.model.28.cv3.3.1.act/aten::silu_/Swish_6/fq_output_0/output_low" type="Const" version="opset1">
			<data element_type="f32" shape="" offset="410460" size="4" />
			<output>
				<port id="0" precision="FP32" />
			</output>
		</layer>
		<layer id="105" name="__module.model.28.cv3.3.1.act/aten::silu_/Swish_6/fq_output_0/output_high" type="Const" version="opset1">
			<data element_type="f32" shape="" offset="410464" size="4" />
			<output>
				<port id="0" precision="FP32" />
			</output>
		</layer>
		<layer id="106" name="__module.model.28.cv3.3.1.act/aten::silu_/Swish_6/fq_output_0" type="FakeQuantize" version="opset1">
			<data levels="256" auto_broadcast="numpy" />
			<input>
				<port id="0" precision="FP32">
					<dim>1</dim>
					<dim>48</dim>
					<dim>160</dim>
					<dim>160</dim>
				</port>
				<port id="1" precision="FP32" />
				<port id="2" precision="FP32" />
				<port id="3" precision="FP32" />
				<port id="4" precision="FP32" />
			</input>
			<output>
				<port id="5" precision="FP32">
					<dim>1</dim>
					<dim>48</dim>
					<dim>160</dim>
					<dim>160</dim>
				</port>
			</output>
		</layer>
		<layer id="107" name="__module.model.2.m.1/aten::add/Add" type="Add" version="opset1">
			<data auto_broadcast="numpy" />
			<input>
				<port id="0" precision="FP32">
					<dim>1</dim>
					<dim>48</dim>
					<dim>160</dim>
					<dim>160</dim>
				</port>
				<port id="1" precision="FP32">
					<dim>1</dim>
					<dim>48</dim>
					<dim>160</dim>
					<dim>160</dim>
				</port>
			</input>
			<output>
				<port id="2" precision="FP32" names="188">
					<dim>1</dim>
					<dim>48</dim>
					<dim>160</dim>
					<dim>160</dim>
				</port>
			</output>
		</layer>
		<layer id="108" name="__module.model.2.m.1/aten::add/Add/fq_output_0/input_low" type="Const" version="opset1">
			<data element_type="f32" shape="" offset="325928" size="4" />
			<output>
				<port id="0" precision="FP32" />
			</output>
		</layer>
		<layer id="109" name="__module.model.2.m.1/aten::add/Add/fq_output_0/input_high" type="Const" version="opset1">
			<data element_type="f32" shape="" offset="325932" size="4" />
			<output>
				<port id="0" precision="FP32" />
			</output>
		</layer>
		<layer id="110" name="__module.model.2.m.1/aten::add/Add/fq_output_0/output_low" type="Const" version="opset1">
			<data element_type="f32" shape="" offset="325928" size="4" />
			<output>
				<port id="0" precision="FP32" />
			</output>
		</layer>
		<layer id="111" name="__module.model.2.m.1/aten::add/Add/fq_output_0/output_high" type="Const" version="opset1">
			<data element_type="f32" shape="" offset="325932" size="4" />
			<output>
				<port id="0" precision="FP32" />
			</output>
		</layer>
		<layer id="112" name="__module.model.2.m.1/aten::add/Add/fq_output_0" type="FakeQuantize" version="opset1">
			<data levels="256" auto_broadcast="numpy" />
			<input>
				<port id="0" precision="FP32">
					<dim>1</dim>
					<dim>48</dim>
					<dim>160</dim>
					<dim>160</dim>
				</port>
				<port id="1" precision="FP32" />
				<port id="2" precision="FP32" />
				<port id="3" precision="FP32" />
				<port id="4" precision="FP32" />
			</input>
			<output>
				<port id="5" precision="FP32">
					<dim>1</dim>
					<dim>48</dim>
					<dim>160</dim>
					<dim>160</dim>
				</port>
			</output>
		</layer>
		<layer id="113" name="__module.model.2/aten::cat/Concat" type="Concat" version="opset1">
			<data axis="1" />
			<input>
				<port id="0" precision="FP32">
					<dim>1</dim>
					<dim>48</dim>
					<dim>160</dim>
					<dim>160</dim>
				</port>
				<port id="1" precision="FP32">
					<dim>1</dim>
					<dim>48</dim>
					<dim>160</dim>
					<dim>160</dim>
				</port>
				<port id="2" precision="FP32">
					<dim>1</dim>
					<dim>48</dim>
					<dim>160</dim>
					<dim>160</dim>
				</port>
				<port id="3" precision="FP32">
					<dim>1</dim>
					<dim>48</dim>
					<dim>160</dim>
					<dim>160</dim>
				</port>
			</input>
			<output>
				<port id="4" precision="FP32" names="190,input.27">
					<dim>1</dim>
					<dim>192</dim>
					<dim>160</dim>
					<dim>160</dim>
				</port>
			</output>
		</layer>
		<layer id="114" name="Constant_572463" type="Const" version="opset1">
			<data element_type="i8" shape="96, 192, 1, 1" offset="410468" size="18432" />
			<output>
				<port id="0" precision="I8">
					<dim>96</dim>
					<dim>192</dim>
					<dim>1</dim>
					<dim>1</dim>
				</port>
			</output>
		</layer>
		<layer id="115" name="Convert_572464" type="Convert" version="opset1">
			<data destination_type="f32" />
			<input>
				<port id="0" precision="I8">
					<dim>96</dim>
					<dim>192</dim>
					<dim>1</dim>
					<dim>1</dim>
				</port>
			</input>
			<output>
				<port id="1" precision="FP32">
					<dim>96</dim>
					<dim>192</dim>
					<dim>1</dim>
					<dim>1</dim>
				</port>
			</output>
		</layer>
		<layer id="116" name="Constant_572465" type="Const" version="opset1">
			<data element_type="f32" shape="96, 1, 1, 1" offset="428900" size="384" />
			<output>
				<port id="0" precision="FP32">
					<dim>96</dim>
					<dim>1</dim>
					<dim>1</dim>
					<dim>1</dim>
				</port>
			</output>
		</layer>
		<layer id="117" name="__module.model.2.cv2.conv/aten::_convolution/Convolution/fq_weights_1" type="Multiply" version="opset1">
			<data auto_broadcast="numpy" />
			<input>
				<port id="0" precision="FP32">
					<dim>96</dim>
					<dim>192</dim>
					<dim>1</dim>
					<dim>1</dim>
				</port>
				<port id="1" precision="FP32">
					<dim>96</dim>
					<dim>1</dim>
					<dim>1</dim>
					<dim>1</dim>
				</port>
			</input>
			<output>
				<port id="2" precision="FP32">
					<dim>96</dim>
					<dim>192</dim>
					<dim>1</dim>
					<dim>1</dim>
				</port>
			</output>
		</layer>
		<layer id="118" name="__module.model.2.cv2.conv/aten::_convolution/Convolution" type="Convolution" version="opset1">
			<data strides="1, 1" dilations="1, 1" pads_begin="0, 0" pads_end="0, 0" auto_pad="explicit" />
			<input>
				<port id="0" precision="FP32">
					<dim>1</dim>
					<dim>192</dim>
					<dim>160</dim>
					<dim>160</dim>
				</port>
				<port id="1" precision="FP32">
					<dim>96</dim>
					<dim>192</dim>
					<dim>1</dim>
					<dim>1</dim>
				</port>
			</input>
			<output>
				<port id="2" precision="FP32">
					<dim>1</dim>
					<dim>96</dim>
					<dim>160</dim>
					<dim>160</dim>
				</port>
			</output>
		</layer>
		<layer id="119" name="__module.model.2.cv2.conv/aten::_convolution/Reshape" type="Const" version="opset1">
			<data element_type="f32" shape="1, 96, 1, 1" offset="429284" size="384" />
			<output>
				<port id="0" precision="FP32">
					<dim>1</dim>
					<dim>96</dim>
					<dim>1</dim>
					<dim>1</dim>
				</port>
			</output>
		</layer>
		<layer id="120" name="__module.model.2.cv2.conv/aten::_convolution/Add" type="Add" version="opset1">
			<data auto_broadcast="numpy" />
			<input>
				<port id="0" precision="FP32">
					<dim>1</dim>
					<dim>96</dim>
					<dim>160</dim>
					<dim>160</dim>
				</port>
				<port id="1" precision="FP32">
					<dim>1</dim>
					<dim>96</dim>
					<dim>1</dim>
					<dim>1</dim>
				</port>
			</input>
			<output>
				<port id="2" precision="FP32" names="198_1">
					<dim>1</dim>
					<dim>96</dim>
					<dim>160</dim>
					<dim>160</dim>
				</port>
			</output>
		</layer>
		<layer id="121" name="__module.model.28.cv3.3.1.act/aten::silu_/Swish_7" type="Swish" version="opset4">
			<input>
				<port id="0" precision="FP32">
					<dim>1</dim>
					<dim>96</dim>
					<dim>160</dim>
					<dim>160</dim>
				</port>
			</input>
			<output>
				<port id="1" precision="FP32" names="198,input.29">
					<dim>1</dim>
					<dim>96</dim>
					<dim>160</dim>
					<dim>160</dim>
				</port>
			</output>
		</layer>
		<layer id="122" name="__module.model.28.cv3.3.1.act/aten::silu_/Swish_7/fq_output_0/input_low" type="Const" version="opset1">
			<data element_type="f32" shape="" offset="429668" size="4" />
			<output>
				<port id="0" precision="FP32" />
			</output>
		</layer>
		<layer id="123" name="__module.model.28.cv3.3.1.act/aten::silu_/Swish_7/fq_output_0/input_high" type="Const" version="opset1">
			<data element_type="f32" shape="" offset="429672" size="4" />
			<output>
				<port id="0" precision="FP32" />
			</output>
		</layer>
		<layer id="124" name="__module.model.28.cv3.3.1.act/aten::silu_/Swish_7/fq_output_0/output_low" type="Const" version="opset1">
			<data element_type="f32" shape="" offset="429668" size="4" />
			<output>
				<port id="0" precision="FP32" />
			</output>
		</layer>
		<layer id="125" name="__module.model.28.cv3.3.1.act/aten::silu_/Swish_7/fq_output_0/output_high" type="Const" version="opset1">
			<data element_type="f32" shape="" offset="429672" size="4" />
			<output>
				<port id="0" precision="FP32" />
			</output>
		</layer>
		<layer id="126" name="__module.model.28.cv3.3.1.act/aten::silu_/Swish_7/fq_output_0" type="FakeQuantize" version="opset1">
			<data levels="256" auto_broadcast="numpy" />
			<input>
				<port id="0" precision="FP32">
					<dim>1</dim>
					<dim>96</dim>
					<dim>160</dim>
					<dim>160</dim>
				</port>
				<port id="1" precision="FP32" />
				<port id="2" precision="FP32" />
				<port id="3" precision="FP32" />
				<port id="4" precision="FP32" />
			</input>
			<output>
				<port id="5" precision="FP32">
					<dim>1</dim>
					<dim>96</dim>
					<dim>160</dim>
					<dim>160</dim>
				</port>
			</output>
		</layer>
		<layer id="127" name="Constant_572467" type="Const" version="opset1">
			<data element_type="i8" shape="192, 96, 3, 3" offset="429676" size="165888" />
			<output>
				<port id="0" precision="I8">
					<dim>192</dim>
					<dim>96</dim>
					<dim>3</dim>
					<dim>3</dim>
				</port>
			</output>
		</layer>
		<layer id="128" name="Convert_572468" type="Convert" version="opset1">
			<data destination_type="f32" />
			<input>
				<port id="0" precision="I8">
					<dim>192</dim>
					<dim>96</dim>
					<dim>3</dim>
					<dim>3</dim>
				</port>
			</input>
			<output>
				<port id="1" precision="FP32">
					<dim>192</dim>
					<dim>96</dim>
					<dim>3</dim>
					<dim>3</dim>
				</port>
			</output>
		</layer>
		<layer id="129" name="Constant_572469" type="Const" version="opset1">
			<data element_type="f32" shape="192, 1, 1, 1" offset="595564" size="768" />
			<output>
				<port id="0" precision="FP32">
					<dim>192</dim>
					<dim>1</dim>
					<dim>1</dim>
					<dim>1</dim>
				</port>
			</output>
		</layer>
		<layer id="130" name="__module.model.3.conv/aten::_convolution/Convolution/fq_weights_1" type="Multiply" version="opset1">
			<data auto_broadcast="numpy" />
			<input>
				<port id="0" precision="FP32">
					<dim>192</dim>
					<dim>96</dim>
					<dim>3</dim>
					<dim>3</dim>
				</port>
				<port id="1" precision="FP32">
					<dim>192</dim>
					<dim>1</dim>
					<dim>1</dim>
					<dim>1</dim>
				</port>
			</input>
			<output>
				<port id="2" precision="FP32">
					<dim>192</dim>
					<dim>96</dim>
					<dim>3</dim>
					<dim>3</dim>
				</port>
			</output>
		</layer>
		<layer id="131" name="__module.model.3.conv/aten::_convolution/Convolution" type="Convolution" version="opset1">
			<data strides="2, 2" dilations="1, 1" pads_begin="1, 1" pads_end="1, 1" auto_pad="explicit" />
			<input>
				<port id="0" precision="FP32">
					<dim>1</dim>
					<dim>96</dim>
					<dim>160</dim>
					<dim>160</dim>
				</port>
				<port id="1" precision="FP32">
					<dim>192</dim>
					<dim>96</dim>
					<dim>3</dim>
					<dim>3</dim>
				</port>
			</input>
			<output>
				<port id="2" precision="FP32">
					<dim>1</dim>
					<dim>192</dim>
					<dim>80</dim>
					<dim>80</dim>
				</port>
			</output>
		</layer>
		<layer id="132" name="__module.model.3.conv/aten::_convolution/Reshape" type="Const" version="opset1">
			<data element_type="f32" shape="1, 192, 1, 1" offset="596332" size="768" />
			<output>
				<port id="0" precision="FP32">
					<dim>1</dim>
					<dim>192</dim>
					<dim>1</dim>
					<dim>1</dim>
				</port>
			</output>
		</layer>
		<layer id="133" name="__module.model.3.conv/aten::_convolution/Add" type="Add" version="opset1">
			<data auto_broadcast="numpy" />
			<input>
				<port id="0" precision="FP32">
					<dim>1</dim>
					<dim>192</dim>
					<dim>80</dim>
					<dim>80</dim>
				</port>
				<port id="1" precision="FP32">
					<dim>1</dim>
					<dim>192</dim>
					<dim>1</dim>
					<dim>1</dim>
				</port>
			</input>
			<output>
				<port id="2" precision="FP32" names="212_1">
					<dim>1</dim>
					<dim>192</dim>
					<dim>80</dim>
					<dim>80</dim>
				</port>
			</output>
		</layer>
		<layer id="134" name="__module.model.28.cv3.3.1.act/aten::silu_/Swish_8" type="Swish" version="opset4">
			<input>
				<port id="0" precision="FP32">
					<dim>1</dim>
					<dim>192</dim>
					<dim>80</dim>
					<dim>80</dim>
				</port>
			</input>
			<output>
				<port id="1" precision="FP32" names="212,input.33">
					<dim>1</dim>
					<dim>192</dim>
					<dim>80</dim>
					<dim>80</dim>
				</port>
			</output>
		</layer>
		<layer id="135" name="__module.model.28.cv3.3.1.act/aten::silu_/Swish_8/fq_output_0/input_low" type="Const" version="opset1">
			<data element_type="f32" shape="" offset="597100" size="4" />
			<output>
				<port id="0" precision="FP32" />
			</output>
		</layer>
		<layer id="136" name="__module.model.28.cv3.3.1.act/aten::silu_/Swish_8/fq_output_0/input_high" type="Const" version="opset1">
			<data element_type="f32" shape="" offset="597104" size="4" />
			<output>
				<port id="0" precision="FP32" />
			</output>
		</layer>
		<layer id="137" name="__module.model.28.cv3.3.1.act/aten::silu_/Swish_8/fq_output_0/output_low" type="Const" version="opset1">
			<data element_type="f32" shape="" offset="597100" size="4" />
			<output>
				<port id="0" precision="FP32" />
			</output>
		</layer>
		<layer id="138" name="__module.model.28.cv3.3.1.act/aten::silu_/Swish_8/fq_output_0/output_high" type="Const" version="opset1">
			<data element_type="f32" shape="" offset="597104" size="4" />
			<output>
				<port id="0" precision="FP32" />
			</output>
		</layer>
		<layer id="139" name="__module.model.28.cv3.3.1.act/aten::silu_/Swish_8/fq_output_0" type="FakeQuantize" version="opset1">
			<data levels="256" auto_broadcast="numpy" />
			<input>
				<port id="0" precision="FP32">
					<dim>1</dim>
					<dim>192</dim>
					<dim>80</dim>
					<dim>80</dim>
				</port>
				<port id="1" precision="FP32" />
				<port id="2" precision="FP32" />
				<port id="3" precision="FP32" />
				<port id="4" precision="FP32" />
			</input>
			<output>
				<port id="5" precision="FP32">
					<dim>1</dim>
					<dim>192</dim>
					<dim>80</dim>
					<dim>80</dim>
				</port>
			</output>
		</layer>
		<layer id="140" name="Constant_572471" type="Const" version="opset1">
			<data element_type="i8" shape="192, 192, 1, 1" offset="597108" size="36864" />
			<output>
				<port id="0" precision="I8">
					<dim>192</dim>
					<dim>192</dim>
					<dim>1</dim>
					<dim>1</dim>
				</port>
			</output>
		</layer>
		<layer id="141" name="Convert_572472" type="Convert" version="opset1">
			<data destination_type="f32" />
			<input>
				<port id="0" precision="I8">
					<dim>192</dim>
					<dim>192</dim>
					<dim>1</dim>
					<dim>1</dim>
				</port>
			</input>
			<output>
				<port id="1" precision="FP32">
					<dim>192</dim>
					<dim>192</dim>
					<dim>1</dim>
					<dim>1</dim>
				</port>
			</output>
		</layer>
		<layer id="142" name="Constant_572473" type="Const" version="opset1">
			<data element_type="f32" shape="192, 1, 1, 1" offset="633972" size="768" />
			<output>
				<port id="0" precision="FP32">
					<dim>192</dim>
					<dim>1</dim>
					<dim>1</dim>
					<dim>1</dim>
				</port>
			</output>
		</layer>
		<layer id="143" name="__module.model.4.cv1.conv/aten::_convolution/Convolution/fq_weights_1" type="Multiply" version="opset1">
			<data auto_broadcast="numpy" />
			<input>
				<port id="0" precision="FP32">
					<dim>192</dim>
					<dim>192</dim>
					<dim>1</dim>
					<dim>1</dim>
				</port>
				<port id="1" precision="FP32">
					<dim>192</dim>
					<dim>1</dim>
					<dim>1</dim>
					<dim>1</dim>
				</port>
			</input>
			<output>
				<port id="2" precision="FP32">
					<dim>192</dim>
					<dim>192</dim>
					<dim>1</dim>
					<dim>1</dim>
				</port>
			</output>
		</layer>
		<layer id="144" name="__module.model.4.cv1.conv/aten::_convolution/Convolution" type="Convolution" version="opset1">
			<data strides="1, 1" dilations="1, 1" pads_begin="0, 0" pads_end="0, 0" auto_pad="explicit" />
			<input>
				<port id="0" precision="FP32">
					<dim>1</dim>
					<dim>192</dim>
					<dim>80</dim>
					<dim>80</dim>
				</port>
				<port id="1" precision="FP32">
					<dim>192</dim>
					<dim>192</dim>
					<dim>1</dim>
					<dim>1</dim>
				</port>
			</input>
			<output>
				<port id="2" precision="FP32">
					<dim>1</dim>
					<dim>192</dim>
					<dim>80</dim>
					<dim>80</dim>
				</port>
			</output>
		</layer>
		<layer id="145" name="__module.model.4.cv1.conv/aten::_convolution/Reshape" type="Const" version="opset1">
			<data element_type="f32" shape="1, 192, 1, 1" offset="634740" size="768" />
			<output>
				<port id="0" precision="FP32">
					<dim>1</dim>
					<dim>192</dim>
					<dim>1</dim>
					<dim>1</dim>
				</port>
			</output>
		</layer>
		<layer id="146" name="__module.model.4.cv1.conv/aten::_convolution/Add" type="Add" version="opset1">
			<data auto_broadcast="numpy" />
			<input>
				<port id="0" precision="FP32">
					<dim>1</dim>
					<dim>192</dim>
					<dim>80</dim>
					<dim>80</dim>
				</port>
				<port id="1" precision="FP32">
					<dim>1</dim>
					<dim>192</dim>
					<dim>1</dim>
					<dim>1</dim>
				</port>
			</input>
			<output>
				<port id="2" precision="FP32" names="236_1">
					<dim>1</dim>
					<dim>192</dim>
					<dim>80</dim>
					<dim>80</dim>
				</port>
			</output>
		</layer>
		<layer id="147" name="__module.model.28.cv3.3.1.act/aten::silu_/Swish_9" type="Swish" version="opset4">
			<input>
				<port id="0" precision="FP32">
					<dim>1</dim>
					<dim>192</dim>
					<dim>80</dim>
					<dim>80</dim>
				</port>
			</input>
			<output>
				<port id="1" precision="FP32" names="236,input.37">
					<dim>1</dim>
					<dim>192</dim>
					<dim>80</dim>
					<dim>80</dim>
				</port>
			</output>
		</layer>
		<layer id="148" name="__module.model.28.cv3.3.1.act/aten::silu_/Swish_9/fq_output_0/input_low" type="Const" version="opset1">
			<data element_type="f32" shape="" offset="635508" size="4" />
			<output>
				<port id="0" precision="FP32" />
			</output>
		</layer>
		<layer id="149" name="__module.model.28.cv3.3.1.act/aten::silu_/Swish_9/fq_output_0/input_high" type="Const" version="opset1">
			<data element_type="f32" shape="" offset="635512" size="4" />
			<output>
				<port id="0" precision="FP32" />
			</output>
		</layer>
		<layer id="150" name="__module.model.28.cv3.3.1.act/aten::silu_/Swish_9/fq_output_0/output_low" type="Const" version="opset1">
			<data element_type="f32" shape="" offset="635508" size="4" />
			<output>
				<port id="0" precision="FP32" />
			</output>
		</layer>
		<layer id="151" name="__module.model.28.cv3.3.1.act/aten::silu_/Swish_9/fq_output_0/output_high" type="Const" version="opset1">
			<data element_type="f32" shape="" offset="635512" size="4" />
			<output>
				<port id="0" precision="FP32" />
			</output>
		</layer>
		<layer id="152" name="__module.model.28.cv3.3.1.act/aten::silu_/Swish_9/fq_output_0" type="FakeQuantize" version="opset1">
			<data levels="256" auto_broadcast="numpy" />
			<input>
				<port id="0" precision="FP32">
					<dim>1</dim>
					<dim>192</dim>
					<dim>80</dim>
					<dim>80</dim>
				</port>
				<port id="1" precision="FP32" />
				<port id="2" precision="FP32" />
				<port id="3" precision="FP32" />
				<port id="4" precision="FP32" />
			</input>
			<output>
				<port id="5" precision="FP32">
					<dim>1</dim>
					<dim>192</dim>
					<dim>80</dim>
					<dim>80</dim>
				</port>
			</output>
		</layer>
		<layer id="153" name="218" type="Const" version="opset1">
			<data element_type="i64" shape="" offset="325936" size="8" />
			<output>
				<port id="0" precision="I64" names="218" />
			</output>
		</layer>
		<layer id="154" name="Constant_588" type="Const" version="opset1">
			<data element_type="i64" shape="2" offset="635516" size="16" />
			<output>
				<port id="0" precision="I64" names="238">
					<dim>2</dim>
				</port>
			</output>
		</layer>
		<layer id="155" name="__module.model.4/prim::ListUnpack" type="VariadicSplit" version="opset1">
			<input>
				<port id="0" precision="FP32">
					<dim>1</dim>
					<dim>192</dim>
					<dim>80</dim>
					<dim>80</dim>
				</port>
				<port id="1" precision="I64" />
				<port id="2" precision="I64">
					<dim>2</dim>
				</port>
			</input>
			<output>
				<port id="3" precision="FP32" names="240">
					<dim>1</dim>
					<dim>96</dim>
					<dim>80</dim>
					<dim>80</dim>
				</port>
				<port id="4" precision="FP32" names="241,input.39">
					<dim>1</dim>
					<dim>96</dim>
					<dim>80</dim>
					<dim>80</dim>
				</port>
			</output>
		</layer>
		<layer id="156" name="Constant_572475" type="Const" version="opset1">
			<data element_type="i8" shape="96, 96, 3, 3" offset="635532" size="82944" />
			<output>
				<port id="0" precision="I8">
					<dim>96</dim>
					<dim>96</dim>
					<dim>3</dim>
					<dim>3</dim>
				</port>
			</output>
		</layer>
		<layer id="157" name="Convert_572476" type="Convert" version="opset1">
			<data destination_type="f32" />
			<input>
				<port id="0" precision="I8">
					<dim>96</dim>
					<dim>96</dim>
					<dim>3</dim>
					<dim>3</dim>
				</port>
			</input>
			<output>
				<port id="1" precision="FP32">
					<dim>96</dim>
					<dim>96</dim>
					<dim>3</dim>
					<dim>3</dim>
				</port>
			</output>
		</layer>
		<layer id="158" name="Constant_572477" type="Const" version="opset1">
			<data element_type="f32" shape="96, 1, 1, 1" offset="718476" size="384" />
			<output>
				<port id="0" precision="FP32">
					<dim>96</dim>
					<dim>1</dim>
					<dim>1</dim>
					<dim>1</dim>
				</port>
			</output>
		</layer>
		<layer id="159" name="__module.model.4.m.0.cv1.conv/aten::_convolution/Convolution/fq_weights_1" type="Multiply" version="opset1">
			<data auto_broadcast="numpy" />
			<input>
				<port id="0" precision="FP32">
					<dim>96</dim>
					<dim>96</dim>
					<dim>3</dim>
					<dim>3</dim>
				</port>
				<port id="1" precision="FP32">
					<dim>96</dim>
					<dim>1</dim>
					<dim>1</dim>
					<dim>1</dim>
				</port>
			</input>
			<output>
				<port id="2" precision="FP32">
					<dim>96</dim>
					<dim>96</dim>
					<dim>3</dim>
					<dim>3</dim>
				</port>
			</output>
		</layer>
		<layer id="160" name="__module.model.4.m.0.cv1.conv/aten::_convolution/Convolution" type="Convolution" version="opset1">
			<data strides="1, 1" dilations="1, 1" pads_begin="1, 1" pads_end="1, 1" auto_pad="explicit" />
			<input>
				<port id="0" precision="FP32">
					<dim>1</dim>
					<dim>96</dim>
					<dim>80</dim>
					<dim>80</dim>
				</port>
				<port id="1" precision="FP32">
					<dim>96</dim>
					<dim>96</dim>
					<dim>3</dim>
					<dim>3</dim>
				</port>
			</input>
			<output>
				<port id="2" precision="FP32">
					<dim>1</dim>
					<dim>96</dim>
					<dim>80</dim>
					<dim>80</dim>
				</port>
			</output>
		</layer>
		<layer id="161" name="__module.model.4.m.0.cv1.conv/aten::_convolution/Reshape" type="Const" version="opset1">
			<data element_type="f32" shape="1, 96, 1, 1" offset="718860" size="384" />
			<output>
				<port id="0" precision="FP32">
					<dim>1</dim>
					<dim>96</dim>
					<dim>1</dim>
					<dim>1</dim>
				</port>
			</output>
		</layer>
		<layer id="162" name="__module.model.4.m.0.cv1.conv/aten::_convolution/Add" type="Add" version="opset1">
			<data auto_broadcast="numpy" />
			<input>
				<port id="0" precision="FP32">
					<dim>1</dim>
					<dim>96</dim>
					<dim>80</dim>
					<dim>80</dim>
				</port>
				<port id="1" precision="FP32">
					<dim>1</dim>
					<dim>96</dim>
					<dim>1</dim>
					<dim>1</dim>
				</port>
			</input>
			<output>
				<port id="2" precision="FP32" names="251_1">
					<dim>1</dim>
					<dim>96</dim>
					<dim>80</dim>
					<dim>80</dim>
				</port>
			</output>
		</layer>
		<layer id="163" name="__module.model.28.cv3.3.1.act/aten::silu_/Swish_10" type="Swish" version="opset4">
			<input>
				<port id="0" precision="FP32">
					<dim>1</dim>
					<dim>96</dim>
					<dim>80</dim>
					<dim>80</dim>
				</port>
			</input>
			<output>
				<port id="1" precision="FP32" names="251,input.41">
					<dim>1</dim>
					<dim>96</dim>
					<dim>80</dim>
					<dim>80</dim>
				</port>
			</output>
		</layer>
		<layer id="164" name="__module.model.28.cv3.3.1.act/aten::silu_/Swish_10/fq_output_0/input_low" type="Const" version="opset1">
			<data element_type="f32" shape="" offset="347080" size="4" />
			<output>
				<port id="0" precision="FP32" />
			</output>
		</layer>
		<layer id="165" name="__module.model.28.cv3.3.1.act/aten::silu_/Swish_10/fq_output_0/input_high" type="Const" version="opset1">
			<data element_type="f32" shape="" offset="719244" size="4" />
			<output>
				<port id="0" precision="FP32" />
			</output>
		</layer>
		<layer id="166" name="__module.model.28.cv3.3.1.act/aten::silu_/Swish_10/fq_output_0/output_low" type="Const" version="opset1">
			<data element_type="f32" shape="" offset="347080" size="4" />
			<output>
				<port id="0" precision="FP32" />
			</output>
		</layer>
		<layer id="167" name="__module.model.28.cv3.3.1.act/aten::silu_/Swish_10/fq_output_0/output_high" type="Const" version="opset1">
			<data element_type="f32" shape="" offset="719244" size="4" />
			<output>
				<port id="0" precision="FP32" />
			</output>
		</layer>
		<layer id="168" name="__module.model.28.cv3.3.1.act/aten::silu_/Swish_10/fq_output_0" type="FakeQuantize" version="opset1">
			<data levels="256" auto_broadcast="numpy" />
			<input>
				<port id="0" precision="FP32">
					<dim>1</dim>
					<dim>96</dim>
					<dim>80</dim>
					<dim>80</dim>
				</port>
				<port id="1" precision="FP32" />
				<port id="2" precision="FP32" />
				<port id="3" precision="FP32" />
				<port id="4" precision="FP32" />
			</input>
			<output>
				<port id="5" precision="FP32">
					<dim>1</dim>
					<dim>96</dim>
					<dim>80</dim>
					<dim>80</dim>
				</port>
			</output>
		</layer>
		<layer id="169" name="Constant_572479" type="Const" version="opset1">
			<data element_type="i8" shape="96, 96, 3, 3" offset="719248" size="82944" />
			<output>
				<port id="0" precision="I8">
					<dim>96</dim>
					<dim>96</dim>
					<dim>3</dim>
					<dim>3</dim>
				</port>
			</output>
		</layer>
		<layer id="170" name="Convert_572480" type="Convert" version="opset1">
			<data destination_type="f32" />
			<input>
				<port id="0" precision="I8">
					<dim>96</dim>
					<dim>96</dim>
					<dim>3</dim>
					<dim>3</dim>
				</port>
			</input>
			<output>
				<port id="1" precision="FP32">
					<dim>96</dim>
					<dim>96</dim>
					<dim>3</dim>
					<dim>3</dim>
				</port>
			</output>
		</layer>
		<layer id="171" name="Constant_572481" type="Const" version="opset1">
			<data element_type="f32" shape="96, 1, 1, 1" offset="802192" size="384" />
			<output>
				<port id="0" precision="FP32">
					<dim>96</dim>
					<dim>1</dim>
					<dim>1</dim>
					<dim>1</dim>
				</port>
			</output>
		</layer>
		<layer id="172" name="__module.model.4.m.0.cv2.conv/aten::_convolution/Convolution/fq_weights_1" type="Multiply" version="opset1">
			<data auto_broadcast="numpy" />
			<input>
				<port id="0" precision="FP32">
					<dim>96</dim>
					<dim>96</dim>
					<dim>3</dim>
					<dim>3</dim>
				</port>
				<port id="1" precision="FP32">
					<dim>96</dim>
					<dim>1</dim>
					<dim>1</dim>
					<dim>1</dim>
				</port>
			</input>
			<output>
				<port id="2" precision="FP32">
					<dim>96</dim>
					<dim>96</dim>
					<dim>3</dim>
					<dim>3</dim>
				</port>
			</output>
		</layer>
		<layer id="173" name="__module.model.4.m.0.cv2.conv/aten::_convolution/Convolution" type="Convolution" version="opset1">
			<data strides="1, 1" dilations="1, 1" pads_begin="1, 1" pads_end="1, 1" auto_pad="explicit" />
			<input>
				<port id="0" precision="FP32">
					<dim>1</dim>
					<dim>96</dim>
					<dim>80</dim>
					<dim>80</dim>
				</port>
				<port id="1" precision="FP32">
					<dim>96</dim>
					<dim>96</dim>
					<dim>3</dim>
					<dim>3</dim>
				</port>
			</input>
			<output>
				<port id="2" precision="FP32">
					<dim>1</dim>
					<dim>96</dim>
					<dim>80</dim>
					<dim>80</dim>
				</port>
			</output>
		</layer>
		<layer id="174" name="__module.model.4.m.0.cv2.conv/aten::_convolution/Reshape" type="Const" version="opset1">
			<data element_type="f32" shape="1, 96, 1, 1" offset="802576" size="384" />
			<output>
				<port id="0" precision="FP32">
					<dim>1</dim>
					<dim>96</dim>
					<dim>1</dim>
					<dim>1</dim>
				</port>
			</output>
		</layer>
		<layer id="175" name="__module.model.4.m.0.cv2.conv/aten::_convolution/Add" type="Add" version="opset1">
			<data auto_broadcast="numpy" />
			<input>
				<port id="0" precision="FP32">
					<dim>1</dim>
					<dim>96</dim>
					<dim>80</dim>
					<dim>80</dim>
				</port>
				<port id="1" precision="FP32">
					<dim>1</dim>
					<dim>96</dim>
					<dim>1</dim>
					<dim>1</dim>
				</port>
			</input>
			<output>
				<port id="2" precision="FP32" names="260_1">
					<dim>1</dim>
					<dim>96</dim>
					<dim>80</dim>
					<dim>80</dim>
				</port>
			</output>
		</layer>
		<layer id="176" name="__module.model.28.cv3.3.1.act/aten::silu_/Swish_11" type="Swish" version="opset4">
			<input>
				<port id="0" precision="FP32">
					<dim>1</dim>
					<dim>96</dim>
					<dim>80</dim>
					<dim>80</dim>
				</port>
			</input>
			<output>
				<port id="1" precision="FP32" names="260,input.45">
					<dim>1</dim>
					<dim>96</dim>
					<dim>80</dim>
					<dim>80</dim>
				</port>
			</output>
		</layer>
		<layer id="177" name="__module.model.28.cv3.3.1.act/aten::silu_/Swish_11/fq_output_0/input_low" type="Const" version="opset1">
			<data element_type="f32" shape="" offset="347080" size="4" />
			<output>
				<port id="0" precision="FP32" />
			</output>
		</layer>
		<layer id="178" name="__module.model.28.cv3.3.1.act/aten::silu_/Swish_11/fq_output_0/input_high" type="Const" version="opset1">
			<data element_type="f32" shape="" offset="719244" size="4" />
			<output>
				<port id="0" precision="FP32" />
			</output>
		</layer>
		<layer id="179" name="__module.model.28.cv3.3.1.act/aten::silu_/Swish_11/fq_output_0/output_low" type="Const" version="opset1">
			<data element_type="f32" shape="" offset="347080" size="4" />
			<output>
				<port id="0" precision="FP32" />
			</output>
		</layer>
		<layer id="180" name="__module.model.28.cv3.3.1.act/aten::silu_/Swish_11/fq_output_0/output_high" type="Const" version="opset1">
			<data element_type="f32" shape="" offset="719244" size="4" />
			<output>
				<port id="0" precision="FP32" />
			</output>
		</layer>
		<layer id="181" name="__module.model.28.cv3.3.1.act/aten::silu_/Swish_11/fq_output_0" type="FakeQuantize" version="opset1">
			<data levels="256" auto_broadcast="numpy" />
			<input>
				<port id="0" precision="FP32">
					<dim>1</dim>
					<dim>96</dim>
					<dim>80</dim>
					<dim>80</dim>
				</port>
				<port id="1" precision="FP32" />
				<port id="2" precision="FP32" />
				<port id="3" precision="FP32" />
				<port id="4" precision="FP32" />
			</input>
			<output>
				<port id="5" precision="FP32">
					<dim>1</dim>
					<dim>96</dim>
					<dim>80</dim>
					<dim>80</dim>
				</port>
			</output>
		</layer>
		<layer id="182" name="__module.model.4.m.0/aten::add/Add" type="Add" version="opset1">
			<data auto_broadcast="numpy" />
			<input>
				<port id="0" precision="FP32">
					<dim>1</dim>
					<dim>96</dim>
					<dim>80</dim>
					<dim>80</dim>
				</port>
				<port id="1" precision="FP32">
					<dim>1</dim>
					<dim>96</dim>
					<dim>80</dim>
					<dim>80</dim>
				</port>
			</input>
			<output>
				<port id="2" precision="FP32" names="262,input.47">
					<dim>1</dim>
					<dim>96</dim>
					<dim>80</dim>
					<dim>80</dim>
				</port>
			</output>
		</layer>
		<layer id="183" name="__module.model.4.m.0/aten::add/Add/fq_output_0/input_low" type="Const" version="opset1">
			<data element_type="f32" shape="" offset="635508" size="4" />
			<output>
				<port id="0" precision="FP32" />
			</output>
		</layer>
		<layer id="184" name="__module.model.4.m.0/aten::add/Add/fq_output_0/input_high" type="Const" version="opset1">
			<data element_type="f32" shape="" offset="635512" size="4" />
			<output>
				<port id="0" precision="FP32" />
			</output>
		</layer>
		<layer id="185" name="__module.model.4.m.0/aten::add/Add/fq_output_0/output_low" type="Const" version="opset1">
			<data element_type="f32" shape="" offset="635508" size="4" />
			<output>
				<port id="0" precision="FP32" />
			</output>
		</layer>
		<layer id="186" name="__module.model.4.m.0/aten::add/Add/fq_output_0/output_high" type="Const" version="opset1">
			<data element_type="f32" shape="" offset="635512" size="4" />
			<output>
				<port id="0" precision="FP32" />
			</output>
		</layer>
		<layer id="187" name="__module.model.4.m.0/aten::add/Add/fq_output_0" type="FakeQuantize" version="opset1">
			<data levels="256" auto_broadcast="numpy" />
			<input>
				<port id="0" precision="FP32">
					<dim>1</dim>
					<dim>96</dim>
					<dim>80</dim>
					<dim>80</dim>
				</port>
				<port id="1" precision="FP32" />
				<port id="2" precision="FP32" />
				<port id="3" precision="FP32" />
				<port id="4" precision="FP32" />
			</input>
			<output>
				<port id="5" precision="FP32">
					<dim>1</dim>
					<dim>96</dim>
					<dim>80</dim>
					<dim>80</dim>
				</port>
			</output>
		</layer>
		<layer id="188" name="Constant_572483" type="Const" version="opset1">
			<data element_type="i8" shape="96, 96, 3, 3" offset="802960" size="82944" />
			<output>
				<port id="0" precision="I8">
					<dim>96</dim>
					<dim>96</dim>
					<dim>3</dim>
					<dim>3</dim>
				</port>
			</output>
		</layer>
		<layer id="189" name="Convert_572484" type="Convert" version="opset1">
			<data destination_type="f32" />
			<input>
				<port id="0" precision="I8">
					<dim>96</dim>
					<dim>96</dim>
					<dim>3</dim>
					<dim>3</dim>
				</port>
			</input>
			<output>
				<port id="1" precision="FP32">
					<dim>96</dim>
					<dim>96</dim>
					<dim>3</dim>
					<dim>3</dim>
				</port>
			</output>
		</layer>
		<layer id="190" name="Constant_572485" type="Const" version="opset1">
			<data element_type="f32" shape="96, 1, 1, 1" offset="885904" size="384" />
			<output>
				<port id="0" precision="FP32">
					<dim>96</dim>
					<dim>1</dim>
					<dim>1</dim>
					<dim>1</dim>
				</port>
			</output>
		</layer>
		<layer id="191" name="__module.model.4.m.1.cv1.conv/aten::_convolution/Convolution/fq_weights_1" type="Multiply" version="opset1">
			<data auto_broadcast="numpy" />
			<input>
				<port id="0" precision="FP32">
					<dim>96</dim>
					<dim>96</dim>
					<dim>3</dim>
					<dim>3</dim>
				</port>
				<port id="1" precision="FP32">
					<dim>96</dim>
					<dim>1</dim>
					<dim>1</dim>
					<dim>1</dim>
				</port>
			</input>
			<output>
				<port id="2" precision="FP32">
					<dim>96</dim>
					<dim>96</dim>
					<dim>3</dim>
					<dim>3</dim>
				</port>
			</output>
		</layer>
		<layer id="192" name="__module.model.4.m.1.cv1.conv/aten::_convolution/Convolution" type="Convolution" version="opset1">
			<data strides="1, 1" dilations="1, 1" pads_begin="1, 1" pads_end="1, 1" auto_pad="explicit" />
			<input>
				<port id="0" precision="FP32">
					<dim>1</dim>
					<dim>96</dim>
					<dim>80</dim>
					<dim>80</dim>
				</port>
				<port id="1" precision="FP32">
					<dim>96</dim>
					<dim>96</dim>
					<dim>3</dim>
					<dim>3</dim>
				</port>
			</input>
			<output>
				<port id="2" precision="FP32">
					<dim>1</dim>
					<dim>96</dim>
					<dim>80</dim>
					<dim>80</dim>
				</port>
			</output>
		</layer>
		<layer id="193" name="__module.model.4.m.1.cv1.conv/aten::_convolution/Reshape" type="Const" version="opset1">
			<data element_type="f32" shape="1, 96, 1, 1" offset="886288" size="384" />
			<output>
				<port id="0" precision="FP32">
					<dim>1</dim>
					<dim>96</dim>
					<dim>1</dim>
					<dim>1</dim>
				</port>
			</output>
		</layer>
		<layer id="194" name="__module.model.4.m.1.cv1.conv/aten::_convolution/Add" type="Add" version="opset1">
			<data auto_broadcast="numpy" />
			<input>
				<port id="0" precision="FP32">
					<dim>1</dim>
					<dim>96</dim>
					<dim>80</dim>
					<dim>80</dim>
				</port>
				<port id="1" precision="FP32">
					<dim>1</dim>
					<dim>96</dim>
					<dim>1</dim>
					<dim>1</dim>
				</port>
			</input>
			<output>
				<port id="2" precision="FP32" names="272_1">
					<dim>1</dim>
					<dim>96</dim>
					<dim>80</dim>
					<dim>80</dim>
				</port>
			</output>
		</layer>
		<layer id="195" name="__module.model.28.cv3.3.1.act/aten::silu_/Swish_12" type="Swish" version="opset4">
			<input>
				<port id="0" precision="FP32">
					<dim>1</dim>
					<dim>96</dim>
					<dim>80</dim>
					<dim>80</dim>
				</port>
			</input>
			<output>
				<port id="1" precision="FP32" names="272,input.49">
					<dim>1</dim>
					<dim>96</dim>
					<dim>80</dim>
					<dim>80</dim>
				</port>
			</output>
		</layer>
		<layer id="196" name="__module.model.28.cv3.3.1.act/aten::silu_/Swish_12/fq_output_0/input_low" type="Const" version="opset1">
			<data element_type="f32" shape="" offset="886672" size="4" />
			<output>
				<port id="0" precision="FP32" />
			</output>
		</layer>
		<layer id="197" name="__module.model.28.cv3.3.1.act/aten::silu_/Swish_12/fq_output_0/input_high" type="Const" version="opset1">
			<data element_type="f32" shape="" offset="886676" size="4" />
			<output>
				<port id="0" precision="FP32" />
			</output>
		</layer>
		<layer id="198" name="__module.model.28.cv3.3.1.act/aten::silu_/Swish_12/fq_output_0/output_low" type="Const" version="opset1">
			<data element_type="f32" shape="" offset="886672" size="4" />
			<output>
				<port id="0" precision="FP32" />
			</output>
		</layer>
		<layer id="199" name="__module.model.28.cv3.3.1.act/aten::silu_/Swish_12/fq_output_0/output_high" type="Const" version="opset1">
			<data element_type="f32" shape="" offset="886676" size="4" />
			<output>
				<port id="0" precision="FP32" />
			</output>
		</layer>
		<layer id="200" name="__module.model.28.cv3.3.1.act/aten::silu_/Swish_12/fq_output_0" type="FakeQuantize" version="opset1">
			<data levels="256" auto_broadcast="numpy" />
			<input>
				<port id="0" precision="FP32">
					<dim>1</dim>
					<dim>96</dim>
					<dim>80</dim>
					<dim>80</dim>
				</port>
				<port id="1" precision="FP32" />
				<port id="2" precision="FP32" />
				<port id="3" precision="FP32" />
				<port id="4" precision="FP32" />
			</input>
			<output>
				<port id="5" precision="FP32">
					<dim>1</dim>
					<dim>96</dim>
					<dim>80</dim>
					<dim>80</dim>
				</port>
			</output>
		</layer>
		<layer id="201" name="Constant_572487" type="Const" version="opset1">
			<data element_type="i8" shape="96, 96, 3, 3" offset="886680" size="82944" />
			<output>
				<port id="0" precision="I8">
					<dim>96</dim>
					<dim>96</dim>
					<dim>3</dim>
					<dim>3</dim>
				</port>
			</output>
		</layer>
		<layer id="202" name="Convert_572488" type="Convert" version="opset1">
			<data destination_type="f32" />
			<input>
				<port id="0" precision="I8">
					<dim>96</dim>
					<dim>96</dim>
					<dim>3</dim>
					<dim>3</dim>
				</port>
			</input>
			<output>
				<port id="1" precision="FP32">
					<dim>96</dim>
					<dim>96</dim>
					<dim>3</dim>
					<dim>3</dim>
				</port>
			</output>
		</layer>
		<layer id="203" name="Constant_572489" type="Const" version="opset1">
			<data element_type="f32" shape="96, 1, 1, 1" offset="969624" size="384" />
			<output>
				<port id="0" precision="FP32">
					<dim>96</dim>
					<dim>1</dim>
					<dim>1</dim>
					<dim>1</dim>
				</port>
			</output>
		</layer>
		<layer id="204" name="__module.model.4.m.1.cv2.conv/aten::_convolution/Convolution/fq_weights_1" type="Multiply" version="opset1">
			<data auto_broadcast="numpy" />
			<input>
				<port id="0" precision="FP32">
					<dim>96</dim>
					<dim>96</dim>
					<dim>3</dim>
					<dim>3</dim>
				</port>
				<port id="1" precision="FP32">
					<dim>96</dim>
					<dim>1</dim>
					<dim>1</dim>
					<dim>1</dim>
				</port>
			</input>
			<output>
				<port id="2" precision="FP32">
					<dim>96</dim>
					<dim>96</dim>
					<dim>3</dim>
					<dim>3</dim>
				</port>
			</output>
		</layer>
		<layer id="205" name="__module.model.4.m.1.cv2.conv/aten::_convolution/Convolution" type="Convolution" version="opset1">
			<data strides="1, 1" dilations="1, 1" pads_begin="1, 1" pads_end="1, 1" auto_pad="explicit" />
			<input>
				<port id="0" precision="FP32">
					<dim>1</dim>
					<dim>96</dim>
					<dim>80</dim>
					<dim>80</dim>
				</port>
				<port id="1" precision="FP32">
					<dim>96</dim>
					<dim>96</dim>
					<dim>3</dim>
					<dim>3</dim>
				</port>
			</input>
			<output>
				<port id="2" precision="FP32">
					<dim>1</dim>
					<dim>96</dim>
					<dim>80</dim>
					<dim>80</dim>
				</port>
			</output>
		</layer>
		<layer id="206" name="__module.model.4.m.1.cv2.conv/aten::_convolution/Reshape" type="Const" version="opset1">
			<data element_type="f32" shape="1, 96, 1, 1" offset="970008" size="384" />
			<output>
				<port id="0" precision="FP32">
					<dim>1</dim>
					<dim>96</dim>
					<dim>1</dim>
					<dim>1</dim>
				</port>
			</output>
		</layer>
		<layer id="207" name="__module.model.4.m.1.cv2.conv/aten::_convolution/Add" type="Add" version="opset1">
			<data auto_broadcast="numpy" />
			<input>
				<port id="0" precision="FP32">
					<dim>1</dim>
					<dim>96</dim>
					<dim>80</dim>
					<dim>80</dim>
				</port>
				<port id="1" precision="FP32">
					<dim>1</dim>
					<dim>96</dim>
					<dim>1</dim>
					<dim>1</dim>
				</port>
			</input>
			<output>
				<port id="2" precision="FP32" names="281_1">
					<dim>1</dim>
					<dim>96</dim>
					<dim>80</dim>
					<dim>80</dim>
				</port>
			</output>
		</layer>
		<layer id="208" name="__module.model.28.cv3.3.1.act/aten::silu_/Swish_13" type="Swish" version="opset4">
			<input>
				<port id="0" precision="FP32">
					<dim>1</dim>
					<dim>96</dim>
					<dim>80</dim>
					<dim>80</dim>
				</port>
			</input>
			<output>
				<port id="1" precision="FP32" names="281,input.53">
					<dim>1</dim>
					<dim>96</dim>
					<dim>80</dim>
					<dim>80</dim>
				</port>
			</output>
		</layer>
		<layer id="209" name="__module.model.28.cv3.3.1.act/aten::silu_/Swish_13/fq_output_0/input_low" type="Const" version="opset1">
			<data element_type="f32" shape="" offset="347080" size="4" />
			<output>
				<port id="0" precision="FP32" />
			</output>
		</layer>
		<layer id="210" name="__module.model.28.cv3.3.1.act/aten::silu_/Swish_13/fq_output_0/input_high" type="Const" version="opset1">
			<data element_type="f32" shape="" offset="970392" size="4" />
			<output>
				<port id="0" precision="FP32" />
			</output>
		</layer>
		<layer id="211" name="__module.model.28.cv3.3.1.act/aten::silu_/Swish_13/fq_output_0/output_low" type="Const" version="opset1">
			<data element_type="f32" shape="" offset="347080" size="4" />
			<output>
				<port id="0" precision="FP32" />
			</output>
		</layer>
		<layer id="212" name="__module.model.28.cv3.3.1.act/aten::silu_/Swish_13/fq_output_0/output_high" type="Const" version="opset1">
			<data element_type="f32" shape="" offset="970392" size="4" />
			<output>
				<port id="0" precision="FP32" />
			</output>
		</layer>
		<layer id="213" name="__module.model.28.cv3.3.1.act/aten::silu_/Swish_13/fq_output_0" type="FakeQuantize" version="opset1">
			<data levels="256" auto_broadcast="numpy" />
			<input>
				<port id="0" precision="FP32">
					<dim>1</dim>
					<dim>96</dim>
					<dim>80</dim>
					<dim>80</dim>
				</port>
				<port id="1" precision="FP32" />
				<port id="2" precision="FP32" />
				<port id="3" precision="FP32" />
				<port id="4" precision="FP32" />
			</input>
			<output>
				<port id="5" precision="FP32">
					<dim>1</dim>
					<dim>96</dim>
					<dim>80</dim>
					<dim>80</dim>
				</port>
			</output>
		</layer>
		<layer id="214" name="__module.model.4.m.1/aten::add/Add" type="Add" version="opset1">
			<data auto_broadcast="numpy" />
			<input>
				<port id="0" precision="FP32">
					<dim>1</dim>
					<dim>96</dim>
					<dim>80</dim>
					<dim>80</dim>
				</port>
				<port id="1" precision="FP32">
					<dim>1</dim>
					<dim>96</dim>
					<dim>80</dim>
					<dim>80</dim>
				</port>
			</input>
			<output>
				<port id="2" precision="FP32" names="283,input.55">
					<dim>1</dim>
					<dim>96</dim>
					<dim>80</dim>
					<dim>80</dim>
				</port>
			</output>
		</layer>
		<layer id="215" name="__module.model.4.m.1/aten::add/Add/fq_output_0/input_low" type="Const" version="opset1">
			<data element_type="f32" shape="" offset="635508" size="4" />
			<output>
				<port id="0" precision="FP32" />
			</output>
		</layer>
		<layer id="216" name="__module.model.4.m.1/aten::add/Add/fq_output_0/input_high" type="Const" version="opset1">
			<data element_type="f32" shape="" offset="635512" size="4" />
			<output>
				<port id="0" precision="FP32" />
			</output>
		</layer>
		<layer id="217" name="__module.model.4.m.1/aten::add/Add/fq_output_0/output_low" type="Const" version="opset1">
			<data element_type="f32" shape="" offset="635508" size="4" />
			<output>
				<port id="0" precision="FP32" />
			</output>
		</layer>
		<layer id="218" name="__module.model.4.m.1/aten::add/Add/fq_output_0/output_high" type="Const" version="opset1">
			<data element_type="f32" shape="" offset="635512" size="4" />
			<output>
				<port id="0" precision="FP32" />
			</output>
		</layer>
		<layer id="219" name="__module.model.4.m.1/aten::add/Add/fq_output_0" type="FakeQuantize" version="opset1">
			<data levels="256" auto_broadcast="numpy" />
			<input>
				<port id="0" precision="FP32">
					<dim>1</dim>
					<dim>96</dim>
					<dim>80</dim>
					<dim>80</dim>
				</port>
				<port id="1" precision="FP32" />
				<port id="2" precision="FP32" />
				<port id="3" precision="FP32" />
				<port id="4" precision="FP32" />
			</input>
			<output>
				<port id="5" precision="FP32">
					<dim>1</dim>
					<dim>96</dim>
					<dim>80</dim>
					<dim>80</dim>
				</port>
			</output>
		</layer>
		<layer id="220" name="Constant_572491" type="Const" version="opset1">
			<data element_type="i8" shape="96, 96, 3, 3" offset="970396" size="82944" />
			<output>
				<port id="0" precision="I8">
					<dim>96</dim>
					<dim>96</dim>
					<dim>3</dim>
					<dim>3</dim>
				</port>
			</output>
		</layer>
		<layer id="221" name="Convert_572492" type="Convert" version="opset1">
			<data destination_type="f32" />
			<input>
				<port id="0" precision="I8">
					<dim>96</dim>
					<dim>96</dim>
					<dim>3</dim>
					<dim>3</dim>
				</port>
			</input>
			<output>
				<port id="1" precision="FP32">
					<dim>96</dim>
					<dim>96</dim>
					<dim>3</dim>
					<dim>3</dim>
				</port>
			</output>
		</layer>
		<layer id="222" name="Constant_572493" type="Const" version="opset1">
			<data element_type="f32" shape="96, 1, 1, 1" offset="1053340" size="384" />
			<output>
				<port id="0" precision="FP32">
					<dim>96</dim>
					<dim>1</dim>
					<dim>1</dim>
					<dim>1</dim>
				</port>
			</output>
		</layer>
		<layer id="223" name="__module.model.4.m.2.cv1.conv/aten::_convolution/Convolution/fq_weights_1" type="Multiply" version="opset1">
			<data auto_broadcast="numpy" />
			<input>
				<port id="0" precision="FP32">
					<dim>96</dim>
					<dim>96</dim>
					<dim>3</dim>
					<dim>3</dim>
				</port>
				<port id="1" precision="FP32">
					<dim>96</dim>
					<dim>1</dim>
					<dim>1</dim>
					<dim>1</dim>
				</port>
			</input>
			<output>
				<port id="2" precision="FP32">
					<dim>96</dim>
					<dim>96</dim>
					<dim>3</dim>
					<dim>3</dim>
				</port>
			</output>
		</layer>
		<layer id="224" name="__module.model.4.m.2.cv1.conv/aten::_convolution/Convolution" type="Convolution" version="opset1">
			<data strides="1, 1" dilations="1, 1" pads_begin="1, 1" pads_end="1, 1" auto_pad="explicit" />
			<input>
				<port id="0" precision="FP32">
					<dim>1</dim>
					<dim>96</dim>
					<dim>80</dim>
					<dim>80</dim>
				</port>
				<port id="1" precision="FP32">
					<dim>96</dim>
					<dim>96</dim>
					<dim>3</dim>
					<dim>3</dim>
				</port>
			</input>
			<output>
				<port id="2" precision="FP32">
					<dim>1</dim>
					<dim>96</dim>
					<dim>80</dim>
					<dim>80</dim>
				</port>
			</output>
		</layer>
		<layer id="225" name="__module.model.4.m.2.cv1.conv/aten::_convolution/Reshape" type="Const" version="opset1">
			<data element_type="f32" shape="1, 96, 1, 1" offset="1053724" size="384" />
			<output>
				<port id="0" precision="FP32">
					<dim>1</dim>
					<dim>96</dim>
					<dim>1</dim>
					<dim>1</dim>
				</port>
			</output>
		</layer>
		<layer id="226" name="__module.model.4.m.2.cv1.conv/aten::_convolution/Add" type="Add" version="opset1">
			<data auto_broadcast="numpy" />
			<input>
				<port id="0" precision="FP32">
					<dim>1</dim>
					<dim>96</dim>
					<dim>80</dim>
					<dim>80</dim>
				</port>
				<port id="1" precision="FP32">
					<dim>1</dim>
					<dim>96</dim>
					<dim>1</dim>
					<dim>1</dim>
				</port>
			</input>
			<output>
				<port id="2" precision="FP32" names="293_1">
					<dim>1</dim>
					<dim>96</dim>
					<dim>80</dim>
					<dim>80</dim>
				</port>
			</output>
		</layer>
		<layer id="227" name="__module.model.28.cv3.3.1.act/aten::silu_/Swish_14" type="Swish" version="opset4">
			<input>
				<port id="0" precision="FP32">
					<dim>1</dim>
					<dim>96</dim>
					<dim>80</dim>
					<dim>80</dim>
				</port>
			</input>
			<output>
				<port id="1" precision="FP32" names="293,input.57">
					<dim>1</dim>
					<dim>96</dim>
					<dim>80</dim>
					<dim>80</dim>
				</port>
			</output>
		</layer>
		<layer id="228" name="__module.model.28.cv3.3.1.act/aten::silu_/Swish_14/fq_output_0/input_low" type="Const" version="opset1">
			<data element_type="f32" shape="" offset="347080" size="4" />
			<output>
				<port id="0" precision="FP32" />
			</output>
		</layer>
		<layer id="229" name="__module.model.28.cv3.3.1.act/aten::silu_/Swish_14/fq_output_0/input_high" type="Const" version="opset1">
			<data element_type="f32" shape="" offset="1054108" size="4" />
			<output>
				<port id="0" precision="FP32" />
			</output>
		</layer>
		<layer id="230" name="__module.model.28.cv3.3.1.act/aten::silu_/Swish_14/fq_output_0/output_low" type="Const" version="opset1">
			<data element_type="f32" shape="" offset="347080" size="4" />
			<output>
				<port id="0" precision="FP32" />
			</output>
		</layer>
		<layer id="231" name="__module.model.28.cv3.3.1.act/aten::silu_/Swish_14/fq_output_0/output_high" type="Const" version="opset1">
			<data element_type="f32" shape="" offset="1054108" size="4" />
			<output>
				<port id="0" precision="FP32" />
			</output>
		</layer>
		<layer id="232" name="__module.model.28.cv3.3.1.act/aten::silu_/Swish_14/fq_output_0" type="FakeQuantize" version="opset1">
			<data levels="256" auto_broadcast="numpy" />
			<input>
				<port id="0" precision="FP32">
					<dim>1</dim>
					<dim>96</dim>
					<dim>80</dim>
					<dim>80</dim>
				</port>
				<port id="1" precision="FP32" />
				<port id="2" precision="FP32" />
				<port id="3" precision="FP32" />
				<port id="4" precision="FP32" />
			</input>
			<output>
				<port id="5" precision="FP32">
					<dim>1</dim>
					<dim>96</dim>
					<dim>80</dim>
					<dim>80</dim>
				</port>
			</output>
		</layer>
		<layer id="233" name="Constant_572495" type="Const" version="opset1">
			<data element_type="i8" shape="96, 96, 3, 3" offset="1054112" size="82944" />
			<output>
				<port id="0" precision="I8">
					<dim>96</dim>
					<dim>96</dim>
					<dim>3</dim>
					<dim>3</dim>
				</port>
			</output>
		</layer>
		<layer id="234" name="Convert_572496" type="Convert" version="opset1">
			<data destination_type="f32" />
			<input>
				<port id="0" precision="I8">
					<dim>96</dim>
					<dim>96</dim>
					<dim>3</dim>
					<dim>3</dim>
				</port>
			</input>
			<output>
				<port id="1" precision="FP32">
					<dim>96</dim>
					<dim>96</dim>
					<dim>3</dim>
					<dim>3</dim>
				</port>
			</output>
		</layer>
		<layer id="235" name="Constant_572497" type="Const" version="opset1">
			<data element_type="f32" shape="96, 1, 1, 1" offset="1137056" size="384" />
			<output>
				<port id="0" precision="FP32">
					<dim>96</dim>
					<dim>1</dim>
					<dim>1</dim>
					<dim>1</dim>
				</port>
			</output>
		</layer>
		<layer id="236" name="__module.model.4.m.2.cv2.conv/aten::_convolution/Convolution/fq_weights_1" type="Multiply" version="opset1">
			<data auto_broadcast="numpy" />
			<input>
				<port id="0" precision="FP32">
					<dim>96</dim>
					<dim>96</dim>
					<dim>3</dim>
					<dim>3</dim>
				</port>
				<port id="1" precision="FP32">
					<dim>96</dim>
					<dim>1</dim>
					<dim>1</dim>
					<dim>1</dim>
				</port>
			</input>
			<output>
				<port id="2" precision="FP32">
					<dim>96</dim>
					<dim>96</dim>
					<dim>3</dim>
					<dim>3</dim>
				</port>
			</output>
		</layer>
		<layer id="237" name="__module.model.4.m.2.cv2.conv/aten::_convolution/Convolution" type="Convolution" version="opset1">
			<data strides="1, 1" dilations="1, 1" pads_begin="1, 1" pads_end="1, 1" auto_pad="explicit" />
			<input>
				<port id="0" precision="FP32">
					<dim>1</dim>
					<dim>96</dim>
					<dim>80</dim>
					<dim>80</dim>
				</port>
				<port id="1" precision="FP32">
					<dim>96</dim>
					<dim>96</dim>
					<dim>3</dim>
					<dim>3</dim>
				</port>
			</input>
			<output>
				<port id="2" precision="FP32">
					<dim>1</dim>
					<dim>96</dim>
					<dim>80</dim>
					<dim>80</dim>
				</port>
			</output>
		</layer>
		<layer id="238" name="__module.model.4.m.2.cv2.conv/aten::_convolution/Reshape" type="Const" version="opset1">
			<data element_type="f32" shape="1, 96, 1, 1" offset="1137440" size="384" />
			<output>
				<port id="0" precision="FP32">
					<dim>1</dim>
					<dim>96</dim>
					<dim>1</dim>
					<dim>1</dim>
				</port>
			</output>
		</layer>
		<layer id="239" name="__module.model.4.m.2.cv2.conv/aten::_convolution/Add" type="Add" version="opset1">
			<data auto_broadcast="numpy" />
			<input>
				<port id="0" precision="FP32">
					<dim>1</dim>
					<dim>96</dim>
					<dim>80</dim>
					<dim>80</dim>
				</port>
				<port id="1" precision="FP32">
					<dim>1</dim>
					<dim>96</dim>
					<dim>1</dim>
					<dim>1</dim>
				</port>
			</input>
			<output>
				<port id="2" precision="FP32" names="302_1">
					<dim>1</dim>
					<dim>96</dim>
					<dim>80</dim>
					<dim>80</dim>
				</port>
			</output>
		</layer>
		<layer id="240" name="__module.model.28.cv3.3.1.act/aten::silu_/Swish_15" type="Swish" version="opset4">
			<input>
				<port id="0" precision="FP32">
					<dim>1</dim>
					<dim>96</dim>
					<dim>80</dim>
					<dim>80</dim>
				</port>
			</input>
			<output>
				<port id="1" precision="FP32" names="302,input.61">
					<dim>1</dim>
					<dim>96</dim>
					<dim>80</dim>
					<dim>80</dim>
				</port>
			</output>
		</layer>
		<layer id="241" name="__module.model.28.cv3.3.1.act/aten::silu_/Swish_15/fq_output_0/input_low" type="Const" version="opset1">
			<data element_type="f32" shape="" offset="347080" size="4" />
			<output>
				<port id="0" precision="FP32" />
			</output>
		</layer>
		<layer id="242" name="__module.model.28.cv3.3.1.act/aten::silu_/Swish_15/fq_output_0/input_high" type="Const" version="opset1">
			<data element_type="f32" shape="" offset="970392" size="4" />
			<output>
				<port id="0" precision="FP32" />
			</output>
		</layer>
		<layer id="243" name="__module.model.28.cv3.3.1.act/aten::silu_/Swish_15/fq_output_0/output_low" type="Const" version="opset1">
			<data element_type="f32" shape="" offset="347080" size="4" />
			<output>
				<port id="0" precision="FP32" />
			</output>
		</layer>
		<layer id="244" name="__module.model.28.cv3.3.1.act/aten::silu_/Swish_15/fq_output_0/output_high" type="Const" version="opset1">
			<data element_type="f32" shape="" offset="970392" size="4" />
			<output>
				<port id="0" precision="FP32" />
			</output>
		</layer>
		<layer id="245" name="__module.model.28.cv3.3.1.act/aten::silu_/Swish_15/fq_output_0" type="FakeQuantize" version="opset1">
			<data levels="256" auto_broadcast="numpy" />
			<input>
				<port id="0" precision="FP32">
					<dim>1</dim>
					<dim>96</dim>
					<dim>80</dim>
					<dim>80</dim>
				</port>
				<port id="1" precision="FP32" />
				<port id="2" precision="FP32" />
				<port id="3" precision="FP32" />
				<port id="4" precision="FP32" />
			</input>
			<output>
				<port id="5" precision="FP32">
					<dim>1</dim>
					<dim>96</dim>
					<dim>80</dim>
					<dim>80</dim>
				</port>
			</output>
		</layer>
		<layer id="246" name="__module.model.4.m.2/aten::add/Add" type="Add" version="opset1">
			<data auto_broadcast="numpy" />
			<input>
				<port id="0" precision="FP32">
					<dim>1</dim>
					<dim>96</dim>
					<dim>80</dim>
					<dim>80</dim>
				</port>
				<port id="1" precision="FP32">
					<dim>1</dim>
					<dim>96</dim>
					<dim>80</dim>
					<dim>80</dim>
				</port>
			</input>
			<output>
				<port id="2" precision="FP32" names="304,input.63">
					<dim>1</dim>
					<dim>96</dim>
					<dim>80</dim>
					<dim>80</dim>
				</port>
			</output>
		</layer>
		<layer id="247" name="__module.model.4.m.2/aten::add/Add/fq_output_0/input_low" type="Const" version="opset1">
			<data element_type="f32" shape="" offset="635508" size="4" />
			<output>
				<port id="0" precision="FP32" />
			</output>
		</layer>
		<layer id="248" name="__module.model.4.m.2/aten::add/Add/fq_output_0/input_high" type="Const" version="opset1">
			<data element_type="f32" shape="" offset="635512" size="4" />
			<output>
				<port id="0" precision="FP32" />
			</output>
		</layer>
		<layer id="249" name="__module.model.4.m.2/aten::add/Add/fq_output_0/output_low" type="Const" version="opset1">
			<data element_type="f32" shape="" offset="635508" size="4" />
			<output>
				<port id="0" precision="FP32" />
			</output>
		</layer>
		<layer id="250" name="__module.model.4.m.2/aten::add/Add/fq_output_0/output_high" type="Const" version="opset1">
			<data element_type="f32" shape="" offset="635512" size="4" />
			<output>
				<port id="0" precision="FP32" />
			</output>
		</layer>
		<layer id="251" name="__module.model.4.m.2/aten::add/Add/fq_output_0" type="FakeQuantize" version="opset1">
			<data levels="256" auto_broadcast="numpy" />
			<input>
				<port id="0" precision="FP32">
					<dim>1</dim>
					<dim>96</dim>
					<dim>80</dim>
					<dim>80</dim>
				</port>
				<port id="1" precision="FP32" />
				<port id="2" precision="FP32" />
				<port id="3" precision="FP32" />
				<port id="4" precision="FP32" />
			</input>
			<output>
				<port id="5" precision="FP32">
					<dim>1</dim>
					<dim>96</dim>
					<dim>80</dim>
					<dim>80</dim>
				</port>
			</output>
		</layer>
		<layer id="252" name="Constant_572499" type="Const" version="opset1">
			<data element_type="i8" shape="96, 96, 3, 3" offset="1137824" size="82944" />
			<output>
				<port id="0" precision="I8">
					<dim>96</dim>
					<dim>96</dim>
					<dim>3</dim>
					<dim>3</dim>
				</port>
			</output>
		</layer>
		<layer id="253" name="Convert_572500" type="Convert" version="opset1">
			<data destination_type="f32" />
			<input>
				<port id="0" precision="I8">
					<dim>96</dim>
					<dim>96</dim>
					<dim>3</dim>
					<dim>3</dim>
				</port>
			</input>
			<output>
				<port id="1" precision="FP32">
					<dim>96</dim>
					<dim>96</dim>
					<dim>3</dim>
					<dim>3</dim>
				</port>
			</output>
		</layer>
		<layer id="254" name="Constant_572501" type="Const" version="opset1">
			<data element_type="f32" shape="96, 1, 1, 1" offset="1220768" size="384" />
			<output>
				<port id="0" precision="FP32">
					<dim>96</dim>
					<dim>1</dim>
					<dim>1</dim>
					<dim>1</dim>
				</port>
			</output>
		</layer>
		<layer id="255" name="__module.model.4.m.3.cv1.conv/aten::_convolution/Convolution/fq_weights_1" type="Multiply" version="opset1">
			<data auto_broadcast="numpy" />
			<input>
				<port id="0" precision="FP32">
					<dim>96</dim>
					<dim>96</dim>
					<dim>3</dim>
					<dim>3</dim>
				</port>
				<port id="1" precision="FP32">
					<dim>96</dim>
					<dim>1</dim>
					<dim>1</dim>
					<dim>1</dim>
				</port>
			</input>
			<output>
				<port id="2" precision="FP32">
					<dim>96</dim>
					<dim>96</dim>
					<dim>3</dim>
					<dim>3</dim>
				</port>
			</output>
		</layer>
		<layer id="256" name="__module.model.4.m.3.cv1.conv/aten::_convolution/Convolution" type="Convolution" version="opset1">
			<data strides="1, 1" dilations="1, 1" pads_begin="1, 1" pads_end="1, 1" auto_pad="explicit" />
			<input>
				<port id="0" precision="FP32">
					<dim>1</dim>
					<dim>96</dim>
					<dim>80</dim>
					<dim>80</dim>
				</port>
				<port id="1" precision="FP32">
					<dim>96</dim>
					<dim>96</dim>
					<dim>3</dim>
					<dim>3</dim>
				</port>
			</input>
			<output>
				<port id="2" precision="FP32">
					<dim>1</dim>
					<dim>96</dim>
					<dim>80</dim>
					<dim>80</dim>
				</port>
			</output>
		</layer>
		<layer id="257" name="__module.model.4.m.3.cv1.conv/aten::_convolution/Reshape" type="Const" version="opset1">
			<data element_type="f32" shape="1, 96, 1, 1" offset="1221152" size="384" />
			<output>
				<port id="0" precision="FP32">
					<dim>1</dim>
					<dim>96</dim>
					<dim>1</dim>
					<dim>1</dim>
				</port>
			</output>
		</layer>
		<layer id="258" name="__module.model.4.m.3.cv1.conv/aten::_convolution/Add" type="Add" version="opset1">
			<data auto_broadcast="numpy" />
			<input>
				<port id="0" precision="FP32">
					<dim>1</dim>
					<dim>96</dim>
					<dim>80</dim>
					<dim>80</dim>
				</port>
				<port id="1" precision="FP32">
					<dim>1</dim>
					<dim>96</dim>
					<dim>1</dim>
					<dim>1</dim>
				</port>
			</input>
			<output>
				<port id="2" precision="FP32" names="314_1">
					<dim>1</dim>
					<dim>96</dim>
					<dim>80</dim>
					<dim>80</dim>
				</port>
			</output>
		</layer>
		<layer id="259" name="__module.model.28.cv3.3.1.act/aten::silu_/Swish_16" type="Swish" version="opset4">
			<input>
				<port id="0" precision="FP32">
					<dim>1</dim>
					<dim>96</dim>
					<dim>80</dim>
					<dim>80</dim>
				</port>
			</input>
			<output>
				<port id="1" precision="FP32" names="314,input.65">
					<dim>1</dim>
					<dim>96</dim>
					<dim>80</dim>
					<dim>80</dim>
				</port>
			</output>
		</layer>
		<layer id="260" name="__module.model.28.cv3.3.1.act/aten::silu_/Swish_16/fq_output_0/input_low" type="Const" version="opset1">
			<data element_type="f32" shape="" offset="1221536" size="4" />
			<output>
				<port id="0" precision="FP32" />
			</output>
		</layer>
		<layer id="261" name="__module.model.28.cv3.3.1.act/aten::silu_/Swish_16/fq_output_0/input_high" type="Const" version="opset1">
			<data element_type="f32" shape="" offset="1221540" size="4" />
			<output>
				<port id="0" precision="FP32" />
			</output>
		</layer>
		<layer id="262" name="__module.model.28.cv3.3.1.act/aten::silu_/Swish_16/fq_output_0/output_low" type="Const" version="opset1">
			<data element_type="f32" shape="" offset="1221536" size="4" />
			<output>
				<port id="0" precision="FP32" />
			</output>
		</layer>
		<layer id="263" name="__module.model.28.cv3.3.1.act/aten::silu_/Swish_16/fq_output_0/output_high" type="Const" version="opset1">
			<data element_type="f32" shape="" offset="1221540" size="4" />
			<output>
				<port id="0" precision="FP32" />
			</output>
		</layer>
		<layer id="264" name="__module.model.28.cv3.3.1.act/aten::silu_/Swish_16/fq_output_0" type="FakeQuantize" version="opset1">
			<data levels="256" auto_broadcast="numpy" />
			<input>
				<port id="0" precision="FP32">
					<dim>1</dim>
					<dim>96</dim>
					<dim>80</dim>
					<dim>80</dim>
				</port>
				<port id="1" precision="FP32" />
				<port id="2" precision="FP32" />
				<port id="3" precision="FP32" />
				<port id="4" precision="FP32" />
			</input>
			<output>
				<port id="5" precision="FP32">
					<dim>1</dim>
					<dim>96</dim>
					<dim>80</dim>
					<dim>80</dim>
				</port>
			</output>
		</layer>
		<layer id="265" name="Constant_572503" type="Const" version="opset1">
			<data element_type="i8" shape="96, 96, 3, 3" offset="1221544" size="82944" />
			<output>
				<port id="0" precision="I8">
					<dim>96</dim>
					<dim>96</dim>
					<dim>3</dim>
					<dim>3</dim>
				</port>
			</output>
		</layer>
		<layer id="266" name="Convert_572504" type="Convert" version="opset1">
			<data destination_type="f32" />
			<input>
				<port id="0" precision="I8">
					<dim>96</dim>
					<dim>96</dim>
					<dim>3</dim>
					<dim>3</dim>
				</port>
			</input>
			<output>
				<port id="1" precision="FP32">
					<dim>96</dim>
					<dim>96</dim>
					<dim>3</dim>
					<dim>3</dim>
				</port>
			</output>
		</layer>
		<layer id="267" name="Constant_572505" type="Const" version="opset1">
			<data element_type="f32" shape="96, 1, 1, 1" offset="1304488" size="384" />
			<output>
				<port id="0" precision="FP32">
					<dim>96</dim>
					<dim>1</dim>
					<dim>1</dim>
					<dim>1</dim>
				</port>
			</output>
		</layer>
		<layer id="268" name="__module.model.4.m.3.cv2.conv/aten::_convolution/Convolution/fq_weights_1" type="Multiply" version="opset1">
			<data auto_broadcast="numpy" />
			<input>
				<port id="0" precision="FP32">
					<dim>96</dim>
					<dim>96</dim>
					<dim>3</dim>
					<dim>3</dim>
				</port>
				<port id="1" precision="FP32">
					<dim>96</dim>
					<dim>1</dim>
					<dim>1</dim>
					<dim>1</dim>
				</port>
			</input>
			<output>
				<port id="2" precision="FP32">
					<dim>96</dim>
					<dim>96</dim>
					<dim>3</dim>
					<dim>3</dim>
				</port>
			</output>
		</layer>
		<layer id="269" name="__module.model.4.m.3.cv2.conv/aten::_convolution/Convolution" type="Convolution" version="opset1">
			<data strides="1, 1" dilations="1, 1" pads_begin="1, 1" pads_end="1, 1" auto_pad="explicit" />
			<input>
				<port id="0" precision="FP32">
					<dim>1</dim>
					<dim>96</dim>
					<dim>80</dim>
					<dim>80</dim>
				</port>
				<port id="1" precision="FP32">
					<dim>96</dim>
					<dim>96</dim>
					<dim>3</dim>
					<dim>3</dim>
				</port>
			</input>
			<output>
				<port id="2" precision="FP32">
					<dim>1</dim>
					<dim>96</dim>
					<dim>80</dim>
					<dim>80</dim>
				</port>
			</output>
		</layer>
		<layer id="270" name="__module.model.4.m.3.cv2.conv/aten::_convolution/Reshape" type="Const" version="opset1">
			<data element_type="f32" shape="1, 96, 1, 1" offset="1304872" size="384" />
			<output>
				<port id="0" precision="FP32">
					<dim>1</dim>
					<dim>96</dim>
					<dim>1</dim>
					<dim>1</dim>
				</port>
			</output>
		</layer>
		<layer id="271" name="__module.model.4.m.3.cv2.conv/aten::_convolution/Add" type="Add" version="opset1">
			<data auto_broadcast="numpy" />
			<input>
				<port id="0" precision="FP32">
					<dim>1</dim>
					<dim>96</dim>
					<dim>80</dim>
					<dim>80</dim>
				</port>
				<port id="1" precision="FP32">
					<dim>1</dim>
					<dim>96</dim>
					<dim>1</dim>
					<dim>1</dim>
				</port>
			</input>
			<output>
				<port id="2" precision="FP32" names="323_1">
					<dim>1</dim>
					<dim>96</dim>
					<dim>80</dim>
					<dim>80</dim>
				</port>
			</output>
		</layer>
		<layer id="272" name="__module.model.28.cv3.3.1.act/aten::silu_/Swish_17" type="Swish" version="opset4">
			<input>
				<port id="0" precision="FP32">
					<dim>1</dim>
					<dim>96</dim>
					<dim>80</dim>
					<dim>80</dim>
				</port>
			</input>
			<output>
				<port id="1" precision="FP32" names="323,input.69">
					<dim>1</dim>
					<dim>96</dim>
					<dim>80</dim>
					<dim>80</dim>
				</port>
			</output>
		</layer>
		<layer id="273" name="__module.model.28.cv3.3.1.act/aten::silu_/Swish_17/fq_output_0/input_low" type="Const" version="opset1">
			<data element_type="f32" shape="" offset="347080" size="4" />
			<output>
				<port id="0" precision="FP32" />
			</output>
		</layer>
		<layer id="274" name="__module.model.28.cv3.3.1.act/aten::silu_/Swish_17/fq_output_0/input_high" type="Const" version="opset1">
			<data element_type="f32" shape="" offset="389336" size="4" />
			<output>
				<port id="0" precision="FP32" />
			</output>
		</layer>
		<layer id="275" name="__module.model.28.cv3.3.1.act/aten::silu_/Swish_17/fq_output_0/output_low" type="Const" version="opset1">
			<data element_type="f32" shape="" offset="347080" size="4" />
			<output>
				<port id="0" precision="FP32" />
			</output>
		</layer>
		<layer id="276" name="__module.model.28.cv3.3.1.act/aten::silu_/Swish_17/fq_output_0/output_high" type="Const" version="opset1">
			<data element_type="f32" shape="" offset="389336" size="4" />
			<output>
				<port id="0" precision="FP32" />
			</output>
		</layer>
		<layer id="277" name="__module.model.28.cv3.3.1.act/aten::silu_/Swish_17/fq_output_0" type="FakeQuantize" version="opset1">
			<data levels="256" auto_broadcast="numpy" />
			<input>
				<port id="0" precision="FP32">
					<dim>1</dim>
					<dim>96</dim>
					<dim>80</dim>
					<dim>80</dim>
				</port>
				<port id="1" precision="FP32" />
				<port id="2" precision="FP32" />
				<port id="3" precision="FP32" />
				<port id="4" precision="FP32" />
			</input>
			<output>
				<port id="5" precision="FP32">
					<dim>1</dim>
					<dim>96</dim>
					<dim>80</dim>
					<dim>80</dim>
				</port>
			</output>
		</layer>
		<layer id="278" name="__module.model.4.m.3/aten::add/Add" type="Add" version="opset1">
			<data auto_broadcast="numpy" />
			<input>
				<port id="0" precision="FP32">
					<dim>1</dim>
					<dim>96</dim>
					<dim>80</dim>
					<dim>80</dim>
				</port>
				<port id="1" precision="FP32">
					<dim>1</dim>
					<dim>96</dim>
					<dim>80</dim>
					<dim>80</dim>
				</port>
			</input>
			<output>
				<port id="2" precision="FP32" names="325">
					<dim>1</dim>
					<dim>96</dim>
					<dim>80</dim>
					<dim>80</dim>
				</port>
			</output>
		</layer>
		<layer id="279" name="__module.model.4.m.3/aten::add/Add/fq_output_0/input_low" type="Const" version="opset1">
			<data element_type="f32" shape="" offset="635508" size="4" />
			<output>
				<port id="0" precision="FP32" />
			</output>
		</layer>
		<layer id="280" name="__module.model.4.m.3/aten::add/Add/fq_output_0/input_high" type="Const" version="opset1">
			<data element_type="f32" shape="" offset="635512" size="4" />
			<output>
				<port id="0" precision="FP32" />
			</output>
		</layer>
		<layer id="281" name="__module.model.4.m.3/aten::add/Add/fq_output_0/output_low" type="Const" version="opset1">
			<data element_type="f32" shape="" offset="635508" size="4" />
			<output>
				<port id="0" precision="FP32" />
			</output>
		</layer>
		<layer id="282" name="__module.model.4.m.3/aten::add/Add/fq_output_0/output_high" type="Const" version="opset1">
			<data element_type="f32" shape="" offset="635512" size="4" />
			<output>
				<port id="0" precision="FP32" />
			</output>
		</layer>
		<layer id="283" name="__module.model.4.m.3/aten::add/Add/fq_output_0" type="FakeQuantize" version="opset1">
			<data levels="256" auto_broadcast="numpy" />
			<input>
				<port id="0" precision="FP32">
					<dim>1</dim>
					<dim>96</dim>
					<dim>80</dim>
					<dim>80</dim>
				</port>
				<port id="1" precision="FP32" />
				<port id="2" precision="FP32" />
				<port id="3" precision="FP32" />
				<port id="4" precision="FP32" />
			</input>
			<output>
				<port id="5" precision="FP32">
					<dim>1</dim>
					<dim>96</dim>
					<dim>80</dim>
					<dim>80</dim>
				</port>
			</output>
		</layer>
		<layer id="284" name="__module.model.4/aten::cat/Concat" type="Concat" version="opset1">
			<data axis="1" />
			<input>
				<port id="0" precision="FP32">
					<dim>1</dim>
					<dim>96</dim>
					<dim>80</dim>
					<dim>80</dim>
				</port>
				<port id="1" precision="FP32">
					<dim>1</dim>
					<dim>96</dim>
					<dim>80</dim>
					<dim>80</dim>
				</port>
				<port id="2" precision="FP32">
					<dim>1</dim>
					<dim>96</dim>
					<dim>80</dim>
					<dim>80</dim>
				</port>
				<port id="3" precision="FP32">
					<dim>1</dim>
					<dim>96</dim>
					<dim>80</dim>
					<dim>80</dim>
				</port>
				<port id="4" precision="FP32">
					<dim>1</dim>
					<dim>96</dim>
					<dim>80</dim>
					<dim>80</dim>
				</port>
				<port id="5" precision="FP32">
					<dim>1</dim>
					<dim>96</dim>
					<dim>80</dim>
					<dim>80</dim>
				</port>
			</input>
			<output>
				<port id="6" precision="FP32" names="327,input.71">
					<dim>1</dim>
					<dim>576</dim>
					<dim>80</dim>
					<dim>80</dim>
				</port>
			</output>
		</layer>
		<layer id="285" name="Constant_572507" type="Const" version="opset1">
			<data element_type="i8" shape="192, 576, 1, 1" offset="1305256" size="110592" />
			<output>
				<port id="0" precision="I8">
					<dim>192</dim>
					<dim>576</dim>
					<dim>1</dim>
					<dim>1</dim>
				</port>
			</output>
		</layer>
		<layer id="286" name="Convert_572508" type="Convert" version="opset1">
			<data destination_type="f32" />
			<input>
				<port id="0" precision="I8">
					<dim>192</dim>
					<dim>576</dim>
					<dim>1</dim>
					<dim>1</dim>
				</port>
			</input>
			<output>
				<port id="1" precision="FP32">
					<dim>192</dim>
					<dim>576</dim>
					<dim>1</dim>
					<dim>1</dim>
				</port>
			</output>
		</layer>
		<layer id="287" name="Constant_572509" type="Const" version="opset1">
			<data element_type="f32" shape="192, 1, 1, 1" offset="1415848" size="768" />
			<output>
				<port id="0" precision="FP32">
					<dim>192</dim>
					<dim>1</dim>
					<dim>1</dim>
					<dim>1</dim>
				</port>
			</output>
		</layer>
		<layer id="288" name="__module.model.4.cv2.conv/aten::_convolution/Convolution/fq_weights_1" type="Multiply" version="opset1">
			<data auto_broadcast="numpy" />
			<input>
				<port id="0" precision="FP32">
					<dim>192</dim>
					<dim>576</dim>
					<dim>1</dim>
					<dim>1</dim>
				</port>
				<port id="1" precision="FP32">
					<dim>192</dim>
					<dim>1</dim>
					<dim>1</dim>
					<dim>1</dim>
				</port>
			</input>
			<output>
				<port id="2" precision="FP32">
					<dim>192</dim>
					<dim>576</dim>
					<dim>1</dim>
					<dim>1</dim>
				</port>
			</output>
		</layer>
		<layer id="289" name="__module.model.4.cv2.conv/aten::_convolution/Convolution" type="Convolution" version="opset1">
			<data strides="1, 1" dilations="1, 1" pads_begin="0, 0" pads_end="0, 0" auto_pad="explicit" />
			<input>
				<port id="0" precision="FP32">
					<dim>1</dim>
					<dim>576</dim>
					<dim>80</dim>
					<dim>80</dim>
				</port>
				<port id="1" precision="FP32">
					<dim>192</dim>
					<dim>576</dim>
					<dim>1</dim>
					<dim>1</dim>
				</port>
			</input>
			<output>
				<port id="2" precision="FP32">
					<dim>1</dim>
					<dim>192</dim>
					<dim>80</dim>
					<dim>80</dim>
				</port>
			</output>
		</layer>
		<layer id="290" name="__module.model.4.cv2.conv/aten::_convolution/Reshape" type="Const" version="opset1">
			<data element_type="f32" shape="1, 192, 1, 1" offset="1416616" size="768" />
			<output>
				<port id="0" precision="FP32">
					<dim>1</dim>
					<dim>192</dim>
					<dim>1</dim>
					<dim>1</dim>
				</port>
			</output>
		</layer>
		<layer id="291" name="__module.model.4.cv2.conv/aten::_convolution/Add" type="Add" version="opset1">
			<data auto_broadcast="numpy" />
			<input>
				<port id="0" precision="FP32">
					<dim>1</dim>
					<dim>192</dim>
					<dim>80</dim>
					<dim>80</dim>
				</port>
				<port id="1" precision="FP32">
					<dim>1</dim>
					<dim>192</dim>
					<dim>1</dim>
					<dim>1</dim>
				</port>
			</input>
			<output>
				<port id="2" precision="FP32" names="335_1">
					<dim>1</dim>
					<dim>192</dim>
					<dim>80</dim>
					<dim>80</dim>
				</port>
			</output>
		</layer>
		<layer id="292" name="__module.model.28.cv3.3.1.act/aten::silu_/Swish_18" type="Swish" version="opset4">
			<input>
				<port id="0" precision="FP32">
					<dim>1</dim>
					<dim>192</dim>
					<dim>80</dim>
					<dim>80</dim>
				</port>
			</input>
			<output>
				<port id="1" precision="FP32" names="335,input.73">
					<dim>1</dim>
					<dim>192</dim>
					<dim>80</dim>
					<dim>80</dim>
				</port>
			</output>
		</layer>
		<layer id="293" name="__module.model.28.cv3.3.1.act/aten::silu_/Swish_18/fq_output_0/input_low" type="Const" version="opset1">
			<data element_type="f32" shape="" offset="1417384" size="4" />
			<output>
				<port id="0" precision="FP32" />
			</output>
		</layer>
		<layer id="294" name="__module.model.28.cv3.3.1.act/aten::silu_/Swish_18/fq_output_0/input_high" type="Const" version="opset1">
			<data element_type="f32" shape="" offset="1417388" size="4" />
			<output>
				<port id="0" precision="FP32" />
			</output>
		</layer>
		<layer id="295" name="__module.model.28.cv3.3.1.act/aten::silu_/Swish_18/fq_output_0/output_low" type="Const" version="opset1">
			<data element_type="f32" shape="" offset="1417384" size="4" />
			<output>
				<port id="0" precision="FP32" />
			</output>
		</layer>
		<layer id="296" name="__module.model.28.cv3.3.1.act/aten::silu_/Swish_18/fq_output_0/output_high" type="Const" version="opset1">
			<data element_type="f32" shape="" offset="1417388" size="4" />
			<output>
				<port id="0" precision="FP32" />
			</output>
		</layer>
		<layer id="297" name="__module.model.28.cv3.3.1.act/aten::silu_/Swish_18/fq_output_0" type="FakeQuantize" version="opset1">
			<data levels="256" auto_broadcast="numpy" />
			<input>
				<port id="0" precision="FP32">
					<dim>1</dim>
					<dim>192</dim>
					<dim>80</dim>
					<dim>80</dim>
				</port>
				<port id="1" precision="FP32" />
				<port id="2" precision="FP32" />
				<port id="3" precision="FP32" />
				<port id="4" precision="FP32" />
			</input>
			<output>
				<port id="5" precision="FP32">
					<dim>1</dim>
					<dim>192</dim>
					<dim>80</dim>
					<dim>80</dim>
				</port>
			</output>
		</layer>
		<layer id="298" name="Constant_572511" type="Const" version="opset1">
			<data element_type="i8" shape="384, 192, 3, 3" offset="1417392" size="663552" />
			<output>
				<port id="0" precision="I8">
					<dim>384</dim>
					<dim>192</dim>
					<dim>3</dim>
					<dim>3</dim>
				</port>
			</output>
		</layer>
		<layer id="299" name="Convert_572512" type="Convert" version="opset1">
			<data destination_type="f32" />
			<input>
				<port id="0" precision="I8">
					<dim>384</dim>
					<dim>192</dim>
					<dim>3</dim>
					<dim>3</dim>
				</port>
			</input>
			<output>
				<port id="1" precision="FP32">
					<dim>384</dim>
					<dim>192</dim>
					<dim>3</dim>
					<dim>3</dim>
				</port>
			</output>
		</layer>
		<layer id="300" name="Constant_572513" type="Const" version="opset1">
			<data element_type="f32" shape="384, 1, 1, 1" offset="2080944" size="1536" />
			<output>
				<port id="0" precision="FP32">
					<dim>384</dim>
					<dim>1</dim>
					<dim>1</dim>
					<dim>1</dim>
				</port>
			</output>
		</layer>
		<layer id="301" name="__module.model.5.conv/aten::_convolution/Convolution/fq_weights_1" type="Multiply" version="opset1">
			<data auto_broadcast="numpy" />
			<input>
				<port id="0" precision="FP32">
					<dim>384</dim>
					<dim>192</dim>
					<dim>3</dim>
					<dim>3</dim>
				</port>
				<port id="1" precision="FP32">
					<dim>384</dim>
					<dim>1</dim>
					<dim>1</dim>
					<dim>1</dim>
				</port>
			</input>
			<output>
				<port id="2" precision="FP32">
					<dim>384</dim>
					<dim>192</dim>
					<dim>3</dim>
					<dim>3</dim>
				</port>
			</output>
		</layer>
		<layer id="302" name="__module.model.5.conv/aten::_convolution/Convolution" type="Convolution" version="opset1">
			<data strides="2, 2" dilations="1, 1" pads_begin="1, 1" pads_end="1, 1" auto_pad="explicit" />
			<input>
				<port id="0" precision="FP32">
					<dim>1</dim>
					<dim>192</dim>
					<dim>80</dim>
					<dim>80</dim>
				</port>
				<port id="1" precision="FP32">
					<dim>384</dim>
					<dim>192</dim>
					<dim>3</dim>
					<dim>3</dim>
				</port>
			</input>
			<output>
				<port id="2" precision="FP32">
					<dim>1</dim>
					<dim>384</dim>
					<dim>40</dim>
					<dim>40</dim>
				</port>
			</output>
		</layer>
		<layer id="303" name="__module.model.5.conv/aten::_convolution/Reshape" type="Const" version="opset1">
			<data element_type="f32" shape="1, 384, 1, 1" offset="2082480" size="1536" />
			<output>
				<port id="0" precision="FP32">
					<dim>1</dim>
					<dim>384</dim>
					<dim>1</dim>
					<dim>1</dim>
				</port>
			</output>
		</layer>
		<layer id="304" name="__module.model.5.conv/aten::_convolution/Add" type="Add" version="opset1">
			<data auto_broadcast="numpy" />
			<input>
				<port id="0" precision="FP32">
					<dim>1</dim>
					<dim>384</dim>
					<dim>40</dim>
					<dim>40</dim>
				</port>
				<port id="1" precision="FP32">
					<dim>1</dim>
					<dim>384</dim>
					<dim>1</dim>
					<dim>1</dim>
				</port>
			</input>
			<output>
				<port id="2" precision="FP32" names="349_1">
					<dim>1</dim>
					<dim>384</dim>
					<dim>40</dim>
					<dim>40</dim>
				</port>
			</output>
		</layer>
		<layer id="305" name="__module.model.28.cv3.3.1.act/aten::silu_/Swish_19" type="Swish" version="opset4">
			<input>
				<port id="0" precision="FP32">
					<dim>1</dim>
					<dim>384</dim>
					<dim>40</dim>
					<dim>40</dim>
				</port>
			</input>
			<output>
				<port id="1" precision="FP32" names="349,input.77">
					<dim>1</dim>
					<dim>384</dim>
					<dim>40</dim>
					<dim>40</dim>
				</port>
			</output>
		</layer>
		<layer id="306" name="__module.model.28.cv3.3.1.act/aten::silu_/Swish_19/fq_output_0/input_low" type="Const" version="opset1">
			<data element_type="f32" shape="" offset="347080" size="4" />
			<output>
				<port id="0" precision="FP32" />
			</output>
		</layer>
		<layer id="307" name="__module.model.28.cv3.3.1.act/aten::silu_/Swish_19/fq_output_0/input_high" type="Const" version="opset1">
			<data element_type="f32" shape="" offset="970392" size="4" />
			<output>
				<port id="0" precision="FP32" />
			</output>
		</layer>
		<layer id="308" name="__module.model.28.cv3.3.1.act/aten::silu_/Swish_19/fq_output_0/output_low" type="Const" version="opset1">
			<data element_type="f32" shape="" offset="347080" size="4" />
			<output>
				<port id="0" precision="FP32" />
			</output>
		</layer>
		<layer id="309" name="__module.model.28.cv3.3.1.act/aten::silu_/Swish_19/fq_output_0/output_high" type="Const" version="opset1">
			<data element_type="f32" shape="" offset="970392" size="4" />
			<output>
				<port id="0" precision="FP32" />
			</output>
		</layer>
		<layer id="310" name="__module.model.28.cv3.3.1.act/aten::silu_/Swish_19/fq_output_0" type="FakeQuantize" version="opset1">
			<data levels="256" auto_broadcast="numpy" />
			<input>
				<port id="0" precision="FP32">
					<dim>1</dim>
					<dim>384</dim>
					<dim>40</dim>
					<dim>40</dim>
				</port>
				<port id="1" precision="FP32" />
				<port id="2" precision="FP32" />
				<port id="3" precision="FP32" />
				<port id="4" precision="FP32" />
			</input>
			<output>
				<port id="5" precision="FP32">
					<dim>1</dim>
					<dim>384</dim>
					<dim>40</dim>
					<dim>40</dim>
				</port>
			</output>
		</layer>
		<layer id="311" name="Constant_572515" type="Const" version="opset1">
			<data element_type="i8" shape="384, 384, 1, 1" offset="2084016" size="147456" />
			<output>
				<port id="0" precision="I8">
					<dim>384</dim>
					<dim>384</dim>
					<dim>1</dim>
					<dim>1</dim>
				</port>
			</output>
		</layer>
		<layer id="312" name="Convert_572516" type="Convert" version="opset1">
			<data destination_type="f32" />
			<input>
				<port id="0" precision="I8">
					<dim>384</dim>
					<dim>384</dim>
					<dim>1</dim>
					<dim>1</dim>
				</port>
			</input>
			<output>
				<port id="1" precision="FP32">
					<dim>384</dim>
					<dim>384</dim>
					<dim>1</dim>
					<dim>1</dim>
				</port>
			</output>
		</layer>
		<layer id="313" name="Constant_572517" type="Const" version="opset1">
			<data element_type="f32" shape="384, 1, 1, 1" offset="2231472" size="1536" />
			<output>
				<port id="0" precision="FP32">
					<dim>384</dim>
					<dim>1</dim>
					<dim>1</dim>
					<dim>1</dim>
				</port>
			</output>
		</layer>
		<layer id="314" name="__module.model.6.cv1.conv/aten::_convolution/Convolution/fq_weights_1" type="Multiply" version="opset1">
			<data auto_broadcast="numpy" />
			<input>
				<port id="0" precision="FP32">
					<dim>384</dim>
					<dim>384</dim>
					<dim>1</dim>
					<dim>1</dim>
				</port>
				<port id="1" precision="FP32">
					<dim>384</dim>
					<dim>1</dim>
					<dim>1</dim>
					<dim>1</dim>
				</port>
			</input>
			<output>
				<port id="2" precision="FP32">
					<dim>384</dim>
					<dim>384</dim>
					<dim>1</dim>
					<dim>1</dim>
				</port>
			</output>
		</layer>
		<layer id="315" name="__module.model.6.cv1.conv/aten::_convolution/Convolution" type="Convolution" version="opset1">
			<data strides="1, 1" dilations="1, 1" pads_begin="0, 0" pads_end="0, 0" auto_pad="explicit" />
			<input>
				<port id="0" precision="FP32">
					<dim>1</dim>
					<dim>384</dim>
					<dim>40</dim>
					<dim>40</dim>
				</port>
				<port id="1" precision="FP32">
					<dim>384</dim>
					<dim>384</dim>
					<dim>1</dim>
					<dim>1</dim>
				</port>
			</input>
			<output>
				<port id="2" precision="FP32">
					<dim>1</dim>
					<dim>384</dim>
					<dim>40</dim>
					<dim>40</dim>
				</port>
			</output>
		</layer>
		<layer id="316" name="__module.model.6.cv1.conv/aten::_convolution/Reshape" type="Const" version="opset1">
			<data element_type="f32" shape="1, 384, 1, 1" offset="2233008" size="1536" />
			<output>
				<port id="0" precision="FP32">
					<dim>1</dim>
					<dim>384</dim>
					<dim>1</dim>
					<dim>1</dim>
				</port>
			</output>
		</layer>
		<layer id="317" name="__module.model.6.cv1.conv/aten::_convolution/Add" type="Add" version="opset1">
			<data auto_broadcast="numpy" />
			<input>
				<port id="0" precision="FP32">
					<dim>1</dim>
					<dim>384</dim>
					<dim>40</dim>
					<dim>40</dim>
				</port>
				<port id="1" precision="FP32">
					<dim>1</dim>
					<dim>384</dim>
					<dim>1</dim>
					<dim>1</dim>
				</port>
			</input>
			<output>
				<port id="2" precision="FP32" names="373_1">
					<dim>1</dim>
					<dim>384</dim>
					<dim>40</dim>
					<dim>40</dim>
				</port>
			</output>
		</layer>
		<layer id="318" name="__module.model.28.cv3.3.1.act/aten::silu_/Swish_20" type="Swish" version="opset4">
			<input>
				<port id="0" precision="FP32">
					<dim>1</dim>
					<dim>384</dim>
					<dim>40</dim>
					<dim>40</dim>
				</port>
			</input>
			<output>
				<port id="1" precision="FP32" names="373,input.81">
					<dim>1</dim>
					<dim>384</dim>
					<dim>40</dim>
					<dim>40</dim>
				</port>
			</output>
		</layer>
		<layer id="319" name="__module.model.28.cv3.3.1.act/aten::silu_/Swish_20/fq_output_0/input_low" type="Const" version="opset1">
			<data element_type="f32" shape="" offset="2234544" size="4" />
			<output>
				<port id="0" precision="FP32" />
			</output>
		</layer>
		<layer id="320" name="__module.model.28.cv3.3.1.act/aten::silu_/Swish_20/fq_output_0/input_high" type="Const" version="opset1">
			<data element_type="f32" shape="" offset="2234548" size="4" />
			<output>
				<port id="0" precision="FP32" />
			</output>
		</layer>
		<layer id="321" name="__module.model.28.cv3.3.1.act/aten::silu_/Swish_20/fq_output_0/output_low" type="Const" version="opset1">
			<data element_type="f32" shape="" offset="2234544" size="4" />
			<output>
				<port id="0" precision="FP32" />
			</output>
		</layer>
		<layer id="322" name="__module.model.28.cv3.3.1.act/aten::silu_/Swish_20/fq_output_0/output_high" type="Const" version="opset1">
			<data element_type="f32" shape="" offset="2234548" size="4" />
			<output>
				<port id="0" precision="FP32" />
			</output>
		</layer>
		<layer id="323" name="__module.model.28.cv3.3.1.act/aten::silu_/Swish_20/fq_output_0" type="FakeQuantize" version="opset1">
			<data levels="256" auto_broadcast="numpy" />
			<input>
				<port id="0" precision="FP32">
					<dim>1</dim>
					<dim>384</dim>
					<dim>40</dim>
					<dim>40</dim>
				</port>
				<port id="1" precision="FP32" />
				<port id="2" precision="FP32" />
				<port id="3" precision="FP32" />
				<port id="4" precision="FP32" />
			</input>
			<output>
				<port id="5" precision="FP32">
					<dim>1</dim>
					<dim>384</dim>
					<dim>40</dim>
					<dim>40</dim>
				</port>
			</output>
		</layer>
		<layer id="324" name="355" type="Const" version="opset1">
			<data element_type="i64" shape="" offset="325936" size="8" />
			<output>
				<port id="0" precision="I64" names="355" />
			</output>
		</layer>
		<layer id="325" name="Constant_1145" type="Const" version="opset1">
			<data element_type="i64" shape="2" offset="2234552" size="16" />
			<output>
				<port id="0" precision="I64" names="375">
					<dim>2</dim>
				</port>
			</output>
		</layer>
		<layer id="326" name="__module.model.6/prim::ListUnpack" type="VariadicSplit" version="opset1">
			<input>
				<port id="0" precision="FP32">
					<dim>1</dim>
					<dim>384</dim>
					<dim>40</dim>
					<dim>40</dim>
				</port>
				<port id="1" precision="I64" />
				<port id="2" precision="I64">
					<dim>2</dim>
				</port>
			</input>
			<output>
				<port id="3" precision="FP32" names="377">
					<dim>1</dim>
					<dim>192</dim>
					<dim>40</dim>
					<dim>40</dim>
				</port>
				<port id="4" precision="FP32" names="378,input.83">
					<dim>1</dim>
					<dim>192</dim>
					<dim>40</dim>
					<dim>40</dim>
				</port>
			</output>
		</layer>
		<layer id="327" name="Constant_572519" type="Const" version="opset1">
			<data element_type="i8" shape="192, 192, 3, 3" offset="2234568" size="331776" />
			<output>
				<port id="0" precision="I8">
					<dim>192</dim>
					<dim>192</dim>
					<dim>3</dim>
					<dim>3</dim>
				</port>
			</output>
		</layer>
		<layer id="328" name="Convert_572520" type="Convert" version="opset1">
			<data destination_type="f32" />
			<input>
				<port id="0" precision="I8">
					<dim>192</dim>
					<dim>192</dim>
					<dim>3</dim>
					<dim>3</dim>
				</port>
			</input>
			<output>
				<port id="1" precision="FP32">
					<dim>192</dim>
					<dim>192</dim>
					<dim>3</dim>
					<dim>3</dim>
				</port>
			</output>
		</layer>
		<layer id="329" name="Constant_572521" type="Const" version="opset1">
			<data element_type="f32" shape="192, 1, 1, 1" offset="2566344" size="768" />
			<output>
				<port id="0" precision="FP32">
					<dim>192</dim>
					<dim>1</dim>
					<dim>1</dim>
					<dim>1</dim>
				</port>
			</output>
		</layer>
		<layer id="330" name="__module.model.6.m.0.cv1.conv/aten::_convolution/Convolution/fq_weights_1" type="Multiply" version="opset1">
			<data auto_broadcast="numpy" />
			<input>
				<port id="0" precision="FP32">
					<dim>192</dim>
					<dim>192</dim>
					<dim>3</dim>
					<dim>3</dim>
				</port>
				<port id="1" precision="FP32">
					<dim>192</dim>
					<dim>1</dim>
					<dim>1</dim>
					<dim>1</dim>
				</port>
			</input>
			<output>
				<port id="2" precision="FP32">
					<dim>192</dim>
					<dim>192</dim>
					<dim>3</dim>
					<dim>3</dim>
				</port>
			</output>
		</layer>
		<layer id="331" name="__module.model.6.m.0.cv1.conv/aten::_convolution/Convolution" type="Convolution" version="opset1">
			<data strides="1, 1" dilations="1, 1" pads_begin="1, 1" pads_end="1, 1" auto_pad="explicit" />
			<input>
				<port id="0" precision="FP32">
					<dim>1</dim>
					<dim>192</dim>
					<dim>40</dim>
					<dim>40</dim>
				</port>
				<port id="1" precision="FP32">
					<dim>192</dim>
					<dim>192</dim>
					<dim>3</dim>
					<dim>3</dim>
				</port>
			</input>
			<output>
				<port id="2" precision="FP32">
					<dim>1</dim>
					<dim>192</dim>
					<dim>40</dim>
					<dim>40</dim>
				</port>
			</output>
		</layer>
		<layer id="332" name="__module.model.6.m.0.cv1.conv/aten::_convolution/Reshape" type="Const" version="opset1">
			<data element_type="f32" shape="1, 192, 1, 1" offset="2567112" size="768" />
			<output>
				<port id="0" precision="FP32">
					<dim>1</dim>
					<dim>192</dim>
					<dim>1</dim>
					<dim>1</dim>
				</port>
			</output>
		</layer>
		<layer id="333" name="__module.model.6.m.0.cv1.conv/aten::_convolution/Add" type="Add" version="opset1">
			<data auto_broadcast="numpy" />
			<input>
				<port id="0" precision="FP32">
					<dim>1</dim>
					<dim>192</dim>
					<dim>40</dim>
					<dim>40</dim>
				</port>
				<port id="1" precision="FP32">
					<dim>1</dim>
					<dim>192</dim>
					<dim>1</dim>
					<dim>1</dim>
				</port>
			</input>
			<output>
				<port id="2" precision="FP32" names="388_1">
					<dim>1</dim>
					<dim>192</dim>
					<dim>40</dim>
					<dim>40</dim>
				</port>
			</output>
		</layer>
		<layer id="334" name="__module.model.28.cv3.3.1.act/aten::silu_/Swish_21" type="Swish" version="opset4">
			<input>
				<port id="0" precision="FP32">
					<dim>1</dim>
					<dim>192</dim>
					<dim>40</dim>
					<dim>40</dim>
				</port>
			</input>
			<output>
				<port id="1" precision="FP32" names="388,input.85">
					<dim>1</dim>
					<dim>192</dim>
					<dim>40</dim>
					<dim>40</dim>
				</port>
			</output>
		</layer>
		<layer id="335" name="__module.model.28.cv3.3.1.act/aten::silu_/Swish_21/fq_output_0/input_low" type="Const" version="opset1">
			<data element_type="f32" shape="" offset="347080" size="4" />
			<output>
				<port id="0" precision="FP32" />
			</output>
		</layer>
		<layer id="336" name="__module.model.28.cv3.3.1.act/aten::silu_/Swish_21/fq_output_0/input_high" type="Const" version="opset1">
			<data element_type="f32" shape="" offset="2567880" size="4" />
			<output>
				<port id="0" precision="FP32" />
			</output>
		</layer>
		<layer id="337" name="__module.model.28.cv3.3.1.act/aten::silu_/Swish_21/fq_output_0/output_low" type="Const" version="opset1">
			<data element_type="f32" shape="" offset="347080" size="4" />
			<output>
				<port id="0" precision="FP32" />
			</output>
		</layer>
		<layer id="338" name="__module.model.28.cv3.3.1.act/aten::silu_/Swish_21/fq_output_0/output_high" type="Const" version="opset1">
			<data element_type="f32" shape="" offset="2567880" size="4" />
			<output>
				<port id="0" precision="FP32" />
			</output>
		</layer>
		<layer id="339" name="__module.model.28.cv3.3.1.act/aten::silu_/Swish_21/fq_output_0" type="FakeQuantize" version="opset1">
			<data levels="256" auto_broadcast="numpy" />
			<input>
				<port id="0" precision="FP32">
					<dim>1</dim>
					<dim>192</dim>
					<dim>40</dim>
					<dim>40</dim>
				</port>
				<port id="1" precision="FP32" />
				<port id="2" precision="FP32" />
				<port id="3" precision="FP32" />
				<port id="4" precision="FP32" />
			</input>
			<output>
				<port id="5" precision="FP32">
					<dim>1</dim>
					<dim>192</dim>
					<dim>40</dim>
					<dim>40</dim>
				</port>
			</output>
		</layer>
		<layer id="340" name="Constant_572523" type="Const" version="opset1">
			<data element_type="i8" shape="192, 192, 3, 3" offset="2567884" size="331776" />
			<output>
				<port id="0" precision="I8">
					<dim>192</dim>
					<dim>192</dim>
					<dim>3</dim>
					<dim>3</dim>
				</port>
			</output>
		</layer>
		<layer id="341" name="Convert_572524" type="Convert" version="opset1">
			<data destination_type="f32" />
			<input>
				<port id="0" precision="I8">
					<dim>192</dim>
					<dim>192</dim>
					<dim>3</dim>
					<dim>3</dim>
				</port>
			</input>
			<output>
				<port id="1" precision="FP32">
					<dim>192</dim>
					<dim>192</dim>
					<dim>3</dim>
					<dim>3</dim>
				</port>
			</output>
		</layer>
		<layer id="342" name="Constant_572525" type="Const" version="opset1">
			<data element_type="f32" shape="192, 1, 1, 1" offset="2899660" size="768" />
			<output>
				<port id="0" precision="FP32">
					<dim>192</dim>
					<dim>1</dim>
					<dim>1</dim>
					<dim>1</dim>
				</port>
			</output>
		</layer>
		<layer id="343" name="__module.model.6.m.0.cv2.conv/aten::_convolution/Convolution/fq_weights_1" type="Multiply" version="opset1">
			<data auto_broadcast="numpy" />
			<input>
				<port id="0" precision="FP32">
					<dim>192</dim>
					<dim>192</dim>
					<dim>3</dim>
					<dim>3</dim>
				</port>
				<port id="1" precision="FP32">
					<dim>192</dim>
					<dim>1</dim>
					<dim>1</dim>
					<dim>1</dim>
				</port>
			</input>
			<output>
				<port id="2" precision="FP32">
					<dim>192</dim>
					<dim>192</dim>
					<dim>3</dim>
					<dim>3</dim>
				</port>
			</output>
		</layer>
		<layer id="344" name="__module.model.6.m.0.cv2.conv/aten::_convolution/Convolution" type="Convolution" version="opset1">
			<data strides="1, 1" dilations="1, 1" pads_begin="1, 1" pads_end="1, 1" auto_pad="explicit" />
			<input>
				<port id="0" precision="FP32">
					<dim>1</dim>
					<dim>192</dim>
					<dim>40</dim>
					<dim>40</dim>
				</port>
				<port id="1" precision="FP32">
					<dim>192</dim>
					<dim>192</dim>
					<dim>3</dim>
					<dim>3</dim>
				</port>
			</input>
			<output>
				<port id="2" precision="FP32">
					<dim>1</dim>
					<dim>192</dim>
					<dim>40</dim>
					<dim>40</dim>
				</port>
			</output>
		</layer>
		<layer id="345" name="__module.model.6.m.0.cv2.conv/aten::_convolution/Reshape" type="Const" version="opset1">
			<data element_type="f32" shape="1, 192, 1, 1" offset="2900428" size="768" />
			<output>
				<port id="0" precision="FP32">
					<dim>1</dim>
					<dim>192</dim>
					<dim>1</dim>
					<dim>1</dim>
				</port>
			</output>
		</layer>
		<layer id="346" name="__module.model.6.m.0.cv2.conv/aten::_convolution/Add" type="Add" version="opset1">
			<data auto_broadcast="numpy" />
			<input>
				<port id="0" precision="FP32">
					<dim>1</dim>
					<dim>192</dim>
					<dim>40</dim>
					<dim>40</dim>
				</port>
				<port id="1" precision="FP32">
					<dim>1</dim>
					<dim>192</dim>
					<dim>1</dim>
					<dim>1</dim>
				</port>
			</input>
			<output>
				<port id="2" precision="FP32" names="397_1">
					<dim>1</dim>
					<dim>192</dim>
					<dim>40</dim>
					<dim>40</dim>
				</port>
			</output>
		</layer>
		<layer id="347" name="__module.model.28.cv3.3.1.act/aten::silu_/Swish_22" type="Swish" version="opset4">
			<input>
				<port id="0" precision="FP32">
					<dim>1</dim>
					<dim>192</dim>
					<dim>40</dim>
					<dim>40</dim>
				</port>
			</input>
			<output>
				<port id="1" precision="FP32" names="397,input.89">
					<dim>1</dim>
					<dim>192</dim>
					<dim>40</dim>
					<dim>40</dim>
				</port>
			</output>
		</layer>
		<layer id="348" name="__module.model.28.cv3.3.1.act/aten::silu_/Swish_22/fq_output_0/input_low" type="Const" version="opset1">
			<data element_type="f32" shape="" offset="347080" size="4" />
			<output>
				<port id="0" precision="FP32" />
			</output>
		</layer>
		<layer id="349" name="__module.model.28.cv3.3.1.act/aten::silu_/Swish_22/fq_output_0/input_high" type="Const" version="opset1">
			<data element_type="f32" shape="" offset="719244" size="4" />
			<output>
				<port id="0" precision="FP32" />
			</output>
		</layer>
		<layer id="350" name="__module.model.28.cv3.3.1.act/aten::silu_/Swish_22/fq_output_0/output_low" type="Const" version="opset1">
			<data element_type="f32" shape="" offset="347080" size="4" />
			<output>
				<port id="0" precision="FP32" />
			</output>
		</layer>
		<layer id="351" name="__module.model.28.cv3.3.1.act/aten::silu_/Swish_22/fq_output_0/output_high" type="Const" version="opset1">
			<data element_type="f32" shape="" offset="719244" size="4" />
			<output>
				<port id="0" precision="FP32" />
			</output>
		</layer>
		<layer id="352" name="__module.model.28.cv3.3.1.act/aten::silu_/Swish_22/fq_output_0" type="FakeQuantize" version="opset1">
			<data levels="256" auto_broadcast="numpy" />
			<input>
				<port id="0" precision="FP32">
					<dim>1</dim>
					<dim>192</dim>
					<dim>40</dim>
					<dim>40</dim>
				</port>
				<port id="1" precision="FP32" />
				<port id="2" precision="FP32" />
				<port id="3" precision="FP32" />
				<port id="4" precision="FP32" />
			</input>
			<output>
				<port id="5" precision="FP32">
					<dim>1</dim>
					<dim>192</dim>
					<dim>40</dim>
					<dim>40</dim>
				</port>
			</output>
		</layer>
		<layer id="353" name="__module.model.6.m.0/aten::add/Add" type="Add" version="opset1">
			<data auto_broadcast="numpy" />
			<input>
				<port id="0" precision="FP32">
					<dim>1</dim>
					<dim>192</dim>
					<dim>40</dim>
					<dim>40</dim>
				</port>
				<port id="1" precision="FP32">
					<dim>1</dim>
					<dim>192</dim>
					<dim>40</dim>
					<dim>40</dim>
				</port>
			</input>
			<output>
				<port id="2" precision="FP32" names="399,input.91">
					<dim>1</dim>
					<dim>192</dim>
					<dim>40</dim>
					<dim>40</dim>
				</port>
			</output>
		</layer>
		<layer id="354" name="__module.model.6.m.0/aten::add/Add/fq_output_0/input_low" type="Const" version="opset1">
			<data element_type="f32" shape="" offset="2234544" size="4" />
			<output>
				<port id="0" precision="FP32" />
			</output>
		</layer>
		<layer id="355" name="__module.model.6.m.0/aten::add/Add/fq_output_0/input_high" type="Const" version="opset1">
			<data element_type="f32" shape="" offset="2234548" size="4" />
			<output>
				<port id="0" precision="FP32" />
			</output>
		</layer>
		<layer id="356" name="__module.model.6.m.0/aten::add/Add/fq_output_0/output_low" type="Const" version="opset1">
			<data element_type="f32" shape="" offset="2234544" size="4" />
			<output>
				<port id="0" precision="FP32" />
			</output>
		</layer>
		<layer id="357" name="__module.model.6.m.0/aten::add/Add/fq_output_0/output_high" type="Const" version="opset1">
			<data element_type="f32" shape="" offset="2234548" size="4" />
			<output>
				<port id="0" precision="FP32" />
			</output>
		</layer>
		<layer id="358" name="__module.model.6.m.0/aten::add/Add/fq_output_0" type="FakeQuantize" version="opset1">
			<data levels="256" auto_broadcast="numpy" />
			<input>
				<port id="0" precision="FP32">
					<dim>1</dim>
					<dim>192</dim>
					<dim>40</dim>
					<dim>40</dim>
				</port>
				<port id="1" precision="FP32" />
				<port id="2" precision="FP32" />
				<port id="3" precision="FP32" />
				<port id="4" precision="FP32" />
			</input>
			<output>
				<port id="5" precision="FP32">
					<dim>1</dim>
					<dim>192</dim>
					<dim>40</dim>
					<dim>40</dim>
				</port>
			</output>
		</layer>
…
		<edge from-layer="844" from-port="0" to-layer="845" to-port="1" />
		<edge from-layer="845" from-port="2" to-layer="846" to-port="0" />
		<edge from-layer="846" from-port="1" to-layer="851" to-port="0" />
		<edge from-layer="847" from-port="0" to-layer="851" to-port="1" />
		<edge from-layer="848" from-port="0" to-layer="851" to-port="2" />
		<edge from-layer="849" from-port="0" to-layer="851" to-port="3" />
		<edge from-layer="850" from-port="0" to-layer="851" to-port="4" />
		<edge from-layer="851" from-port="5" to-layer="856" to-port="0" />
		<edge from-layer="852" from-port="0" to-layer="853" to-port="0" />
		<edge from-layer="853" from-port="1" to-layer="855" to-port="0" />
		<edge from-layer="854" from-port="0" to-layer="855" to-port="1" />
		<edge from-layer="855" from-port="2" to-layer="856" to-port="1" />
		<edge from-layer="856" from-port="2" to-layer="858" to-port="0" />
		<edge from-layer="857" from-port="0" to-layer="858" to-port="1" />
		<edge from-layer="858" from-port="2" to-layer="859" to-port="0" />
		<edge from-layer="859" from-port="1" to-layer="864" to-port="0" />
		<edge from-layer="860" from-port="0" to-layer="864" to-port="1" />
		<edge from-layer="861" from-port="0" to-layer="864" to-port="2" />
		<edge from-layer="862" from-port="0" to-layer="864" to-port="3" />
		<edge from-layer="863" from-port="0" to-layer="864" to-port="4" />
		<edge from-layer="864" from-port="5" to-layer="865" to-port="3" />
		<edge from-layer="865" from-port="4" to-layer="870" to-port="0" />
		<edge from-layer="866" from-port="0" to-layer="867" to-port="0" />
		<edge from-layer="867" from-port="1" to-layer="869" to-port="0" />
		<edge from-layer="868" from-port="0" to-layer="869" to-port="1" />
		<edge from-layer="869" from-port="2" to-layer="870" to-port="1" />
		<edge from-layer="870" from-port="2" to-layer="872" to-port="0" />
		<edge from-layer="871" from-port="0" to-layer="872" to-port="1" />
		<edge from-layer="872" from-port="2" to-layer="873" to-port="0" />
		<edge from-layer="873" from-port="1" to-layer="878" to-port="0" />
		<edge from-layer="874" from-port="0" to-layer="878" to-port="1" />
		<edge from-layer="875" from-port="0" to-layer="878" to-port="2" />
		<edge from-layer="876" from-port="0" to-layer="878" to-port="3" />
		<edge from-layer="877" from-port="0" to-layer="878" to-port="4" />
		<edge from-layer="878" from-port="5" to-layer="883" to-port="0" />
		<edge from-layer="878" from-port="5" to-layer="916" to-port="0" />
		<edge from-layer="878" from-port="5" to-layer="952" to-port="0" />
		<edge from-layer="879" from-port="0" to-layer="880" to-port="0" />
		<edge from-layer="880" from-port="1" to-layer="882" to-port="0" />
		<edge from-layer="881" from-port="0" to-layer="882" to-port="1" />
		<edge from-layer="882" from-port="2" to-layer="883" to-port="1" />
		<edge from-layer="883" from-port="2" to-layer="885" to-port="0" />
		<edge from-layer="884" from-port="0" to-layer="885" to-port="1" />
		<edge from-layer="885" from-port="2" to-layer="886" to-port="0" />
		<edge from-layer="886" from-port="1" to-layer="891" to-port="0" />
		<edge from-layer="887" from-port="0" to-layer="891" to-port="1" />
		<edge from-layer="888" from-port="0" to-layer="891" to-port="2" />
		<edge from-layer="889" from-port="0" to-layer="891" to-port="3" />
		<edge from-layer="890" from-port="0" to-layer="891" to-port="4" />
		<edge from-layer="891" from-port="5" to-layer="896" to-port="0" />
		<edge from-layer="892" from-port="0" to-layer="893" to-port="0" />
		<edge from-layer="893" from-port="1" to-layer="895" to-port="0" />
		<edge from-layer="894" from-port="0" to-layer="895" to-port="1" />
		<edge from-layer="895" from-port="2" to-layer="896" to-port="1" />
		<edge from-layer="896" from-port="2" to-layer="898" to-port="0" />
		<edge from-layer="897" from-port="0" to-layer="898" to-port="1" />
		<edge from-layer="898" from-port="2" to-layer="899" to-port="0" />
		<edge from-layer="899" from-port="1" to-layer="904" to-port="0" />
		<edge from-layer="900" from-port="0" to-layer="904" to-port="1" />
		<edge from-layer="901" from-port="0" to-layer="904" to-port="2" />
		<edge from-layer="902" from-port="0" to-layer="904" to-port="3" />
		<edge from-layer="903" from-port="0" to-layer="904" to-port="4" />
		<edge from-layer="904" from-port="5" to-layer="909" to-port="0" />
		<edge from-layer="905" from-port="0" to-layer="906" to-port="0" />
		<edge from-layer="906" from-port="1" to-layer="908" to-port="0" />
		<edge from-layer="907" from-port="0" to-layer="908" to-port="1" />
		<edge from-layer="908" from-port="2" to-layer="909" to-port="1" />
		<edge from-layer="909" from-port="2" to-layer="911" to-port="0" />
		<edge from-layer="910" from-port="0" to-layer="911" to-port="1" />
		<edge from-layer="911" from-port="2" to-layer="945" to-port="0" />
		<edge from-layer="912" from-port="0" to-layer="913" to-port="0" />
		<edge from-layer="913" from-port="1" to-layer="915" to-port="0" />
		<edge from-layer="914" from-port="0" to-layer="915" to-port="1" />
		<edge from-layer="915" from-port="2" to-layer="916" to-port="1" />
		<edge from-layer="916" from-port="2" to-layer="918" to-port="0" />
		<edge from-layer="917" from-port="0" to-layer="918" to-port="1" />
		<edge from-layer="918" from-port="2" to-layer="919" to-port="0" />
		<edge from-layer="919" from-port="1" to-layer="924" to-port="0" />
		<edge from-layer="920" from-port="0" to-layer="924" to-port="1" />
		<edge from-layer="921" from-port="0" to-layer="924" to-port="2" />
		<edge from-layer="922" from-port="0" to-layer="924" to-port="3" />
		<edge from-layer="923" from-port="0" to-layer="924" to-port="4" />
		<edge from-layer="924" from-port="5" to-layer="929" to-port="0" />
		<edge from-layer="925" from-port="0" to-layer="926" to-port="0" />
		<edge from-layer="926" from-port="1" to-layer="928" to-port="0" />
		<edge from-layer="927" from-port="0" to-layer="928" to-port="1" />
		<edge from-layer="928" from-port="2" to-layer="929" to-port="1" />
		<edge from-layer="929" from-port="2" to-layer="931" to-port="0" />
		<edge from-layer="930" from-port="0" to-layer="931" to-port="1" />
		<edge from-layer="931" from-port="2" to-layer="932" to-port="0" />
		<edge from-layer="932" from-port="1" to-layer="937" to-port="0" />
		<edge from-layer="933" from-port="0" to-layer="937" to-port="1" />
		<edge from-layer="934" from-port="0" to-layer="937" to-port="2" />
		<edge from-layer="935" from-port="0" to-layer="937" to-port="3" />
		<edge from-layer="936" from-port="0" to-layer="937" to-port="4" />
		<edge from-layer="937" from-port="5" to-layer="942" to-port="0" />
		<edge from-layer="938" from-port="0" to-layer="939" to-port="0" />
		<edge from-layer="939" from-port="1" to-layer="941" to-port="0" />
		<edge from-layer="940" from-port="0" to-layer="941" to-port="1" />
		<edge from-layer="941" from-port="2" to-layer="942" to-port="1" />
		<edge from-layer="942" from-port="2" to-layer="944" to-port="0" />
		<edge from-layer="943" from-port="0" to-layer="944" to-port="1" />
		<edge from-layer="944" from-port="2" to-layer="945" to-port="1" />
		<edge from-layer="945" from-port="2" to-layer="1111" to-port="0" />
		<edge from-layer="945" from-port="2" to-layer="947" to-port="0" />
		<edge from-layer="946" from-port="0" to-layer="947" to-port="1" />
		<edge from-layer="947" from-port="2" to-layer="1447" to-port="0" />
		<edge from-layer="948" from-port="0" to-layer="949" to-port="0" />
		<edge from-layer="949" from-port="1" to-layer="951" to-port="0" />
		<edge from-layer="950" from-port="0" to-layer="951" to-port="1" />
		<edge from-layer="951" from-port="2" to-layer="952" to-port="1" />
		<edge from-layer="952" from-port="2" to-layer="954" to-port="0" />
		<edge from-layer="953" from-port="0" to-layer="954" to-port="1" />
		<edge from-layer="954" from-port="2" to-layer="955" to-port="0" />
		<edge from-layer="955" from-port="1" to-layer="960" to-port="0" />
		<edge from-layer="956" from-port="0" to-layer="960" to-port="1" />
		<edge from-layer="957" from-port="0" to-layer="960" to-port="2" />
		<edge from-layer="958" from-port="0" to-layer="960" to-port="3" />
		<edge from-layer="959" from-port="0" to-layer="960" to-port="4" />
		<edge from-layer="960" from-port="5" to-layer="961" to-port="0" />
		<edge from-layer="961" from-port="2" to-layer="966" to-port="0" />
		<edge from-layer="962" from-port="0" to-layer="963" to-port="0" />
		<edge from-layer="963" from-port="1" to-layer="965" to-port="0" />
		<edge from-layer="964" from-port="0" to-layer="965" to-port="1" />
		<edge from-layer="965" from-port="2" to-layer="966" to-port="1" />
		<edge from-layer="966" from-port="2" to-layer="968" to-port="0" />
		<edge from-layer="967" from-port="0" to-layer="968" to-port="1" />
		<edge from-layer="968" from-port="2" to-layer="969" to-port="0" />
		<edge from-layer="969" from-port="1" to-layer="974" to-port="0" />
		<edge from-layer="970" from-port="0" to-layer="974" to-port="1" />
		<edge from-layer="971" from-port="0" to-layer="974" to-port="2" />
		<edge from-layer="972" from-port="0" to-layer="974" to-port="3" />
		<edge from-layer="973" from-port="0" to-layer="974" to-port="4" />
		<edge from-layer="974" from-port="5" to-layer="977" to-port="0" />
		<edge from-layer="975" from-port="0" to-layer="977" to-port="1" />
		<edge from-layer="976" from-port="0" to-layer="977" to-port="2" />
		<edge from-layer="977" from-port="4" to-layer="982" to-port="0" />
		<edge from-layer="977" from-port="3" to-layer="1030" to-port="0" />
		<edge from-layer="977" from-port="4" to-layer="1030" to-port="1" />
		<edge from-layer="978" from-port="0" to-layer="979" to-port="0" />
		<edge from-layer="979" from-port="1" to-layer="981" to-port="0" />
		<edge from-layer="980" from-port="0" to-layer="981" to-port="1" />
		<edge from-layer="981" from-port="2" to-layer="982" to-port="1" />
		<edge from-layer="982" from-port="2" to-layer="984" to-port="0" />
		<edge from-layer="983" from-port="0" to-layer="984" to-port="1" />
		<edge from-layer="984" from-port="2" to-layer="985" to-port="0" />
		<edge from-layer="985" from-port="1" to-layer="990" to-port="0" />
		<edge from-layer="986" from-port="0" to-layer="990" to-port="1" />
		<edge from-layer="987" from-port="0" to-layer="990" to-port="2" />
		<edge from-layer="988" from-port="0" to-layer="990" to-port="3" />
		<edge from-layer="989" from-port="0" to-layer="990" to-port="4" />
		<edge from-layer="990" from-port="5" to-layer="995" to-port="0" />
		<edge from-layer="991" from-port="0" to-layer="992" to-port="0" />
		<edge from-layer="992" from-port="1" to-layer="994" to-port="0" />
		<edge from-layer="993" from-port="0" to-layer="994" to-port="1" />
		<edge from-layer="994" from-port="2" to-layer="995" to-port="1" />
		<edge from-layer="995" from-port="2" to-layer="997" to-port="0" />
		<edge from-layer="996" from-port="0" to-layer="997" to-port="1" />
		<edge from-layer="997" from-port="2" to-layer="998" to-port="0" />
		<edge from-layer="998" from-port="1" to-layer="1003" to-port="0" />
		<edge from-layer="999" from-port="0" to-layer="1003" to-port="1" />
		<edge from-layer="1000" from-port="0" to-layer="1003" to-port="2" />
		<edge from-layer="1001" from-port="0" to-layer="1003" to-port="3" />
		<edge from-layer="1002" from-port="0" to-layer="1003" to-port="4" />
		<edge from-layer="1003" from-port="5" to-layer="1030" to-port="2" />
		<edge from-layer="1003" from-port="5" to-layer="1008" to-port="0" />
		<edge from-layer="1004" from-port="0" to-layer="1005" to-port="0" />
		<edge from-layer="1005" from-port="1" to-layer="1007" to-port="0" />
		<edge from-layer="1006" from-port="0" to-layer="1007" to-port="1" />
		<edge from-layer="1007" from-port="2" to-layer="1008" to-port="1" />
		<edge from-layer="1008" from-port="2" to-layer="1010" to-port="0" />
		<edge from-layer="1009" from-port="0" to-layer="1010" to-port="1" />
		<edge from-layer="1010" from-port="2" to-layer="1011" to-port="0" />
		<edge from-layer="1011" from-port="1" to-layer="1016" to-port="0" />
		<edge from-layer="1012" from-port="0" to-layer="1016" to-port="1" />
		<edge from-layer="1013" from-port="0" to-layer="1016" to-port="2" />
		<edge from-layer="1014" from-port="0" to-layer="1016" to-port="3" />
		<edge from-layer="1015" from-port="0" to-layer="1016" to-port="4" />
		<edge from-layer="1016" from-port="5" to-layer="1021" to-port="0" />
		<edge from-layer="1017" from-port="0" to-layer="1018" to-port="0" />
		<edge from-layer="1018" from-port="1" to-layer="1020" to-port="0" />
		<edge from-layer="1019" from-port="0" to-layer="1020" to-port="1" />
		<edge from-layer="1020" from-port="2" to-layer="1021" to-port="1" />
		<edge from-layer="1021" from-port="2" to-layer="1023" to-port="0" />
		<edge from-layer="1022" from-port="0" to-layer="1023" to-port="1" />
		<edge from-layer="1023" from-port="2" to-layer="1024" to-port="0" />
		<edge from-layer="1024" from-port="1" to-layer="1029" to-port="0" />
		<edge from-layer="1025" from-port="0" to-layer="1029" to-port="1" />
		<edge from-layer="1026" from-port="0" to-layer="1029" to-port="2" />
		<edge from-layer="1027" from-port="0" to-layer="1029" to-port="3" />
		<edge from-layer="1028" from-port="0" to-layer="1029" to-port="4" />
		<edge from-layer="1029" from-port="5" to-layer="1030" to-port="3" />
		<edge from-layer="1030" from-port="4" to-layer="1035" to-port="0" />
		<edge from-layer="1031" from-port="0" to-layer="1032" to-port="0" />
		<edge from-layer="1032" from-port="1" to-layer="1034" to-port="0" />
		<edge from-layer="1033" from-port="0" to-layer="1034" to-port="1" />
		<edge from-layer="1034" from-port="2" to-layer="1035" to-port="1" />
		<edge from-layer="1035" from-port="2" to-layer="1037" to-port="0" />
		<edge from-layer="1036" from-port="0" to-layer="1037" to-port="1" />
		<edge from-layer="1037" from-port="2" to-layer="1038" to-port="0" />
		<edge from-layer="1038" from-port="1" to-layer="1043" to-port="0" />
		<edge from-layer="1039" from-port="0" to-layer="1043" to-port="1" />
		<edge from-layer="1040" from-port="0" to-layer="1043" to-port="2" />
		<edge from-layer="1041" from-port="0" to-layer="1043" to-port="3" />
		<edge from-layer="1042" from-port="0" to-layer="1043" to-port="4" />
		<edge from-layer="1043" from-port="5" to-layer="1048" to-port="0" />
		<edge from-layer="1043" from-port="5" to-layer="1081" to-port="0" />
		<edge from-layer="1043" from-port="5" to-layer="1123" to-port="0" />
		<edge from-layer="1044" from-port="0" to-layer="1045" to-port="0" />
		<edge from-layer="1045" from-port="1" to-layer="1047" to-port="0" />
		<edge from-layer="1046" from-port="0" to-layer="1047" to-port="1" />
		<edge from-layer="1047" from-port="2" to-layer="1048" to-port="1" />
		<edge from-layer="1048" from-port="2" to-layer="1050" to-port="0" />
		<edge from-layer="1049" from-port="0" to-layer="1050" to-port="1" />
		<edge from-layer="1050" from-port="2" to-layer="1051" to-port="0" />
		<edge from-layer="1051" from-port="1" to-layer="1056" to-port="0" />
		<edge from-layer="1052" from-port="0" to-layer="1056" to-port="1" />
		<edge from-layer="1053" from-port="0" to-layer="1056" to-port="2" />
		<edge from-layer="1054" from-port="0" to-layer="1056" to-port="3" />
		<edge from-layer="1055" from-port="0" to-layer="1056" to-port="4" />
		<edge from-layer="1056" from-port="5" to-layer="1061" to-port="0" />
		<edge from-layer="1057" from-port="0" to-layer="1058" to-port="0" />
		<edge from-layer="1058" from-port="1" to-layer="1060" to-port="0" />
		<edge from-layer="1059" from-port="0" to-layer="1060" to-port="1" />
		<edge from-layer="1060" from-port="2" to-layer="1061" to-port="1" />
		<edge from-layer="1061" from-port="2" to-layer="1063" to-port="0" />
		<edge from-layer="1062" from-port="0" to-layer="1063" to-port="1" />
		<edge from-layer="1063" from-port="2" to-layer="1064" to-port="0" />
		<edge from-layer="1064" from-port="1" to-layer="1069" to-port="0" />
		<edge from-layer="1065" from-port="0" to-layer="1069" to-port="1" />
		<edge from-layer="1066" from-port="0" to-layer="1069" to-port="2" />
		<edge from-layer="1067" from-port="0" to-layer="1069" to-port="3" />
		<edge from-layer="1068" from-port="0" to-layer="1069" to-port="4" />
		<edge from-layer="1069" from-port="5" to-layer="1074" to-port="0" />
		<edge from-layer="1070" from-port="0" to-layer="1071" to-port="0" />
		<edge from-layer="1071" from-port="1" to-layer="1073" to-port="0" />
		<edge from-layer="1072" from-port="0" to-layer="1073" to-port="1" />
		<edge from-layer="1073" from-port="2" to-layer="1074" to-port="1" />
		<edge from-layer="1074" from-port="2" to-layer="1076" to-port="0" />
		<edge from-layer="1075" from-port="0" to-layer="1076" to-port="1" />
		<edge from-layer="1076" from-port="2" to-layer="1110" to-port="0" />
		<edge from-layer="1077" from-port="0" to-layer="1078" to-port="0" />
		<edge from-layer="1078" from-port="1" to-layer="1080" to-port="0" />
		<edge from-layer="1079" from-port="0" to-layer="1080" to-port="1" />
		<edge from-layer="1080" from-port="2" to-layer="1081" to-port="1" />
		<edge from-layer="1081" from-port="2" to-layer="1083" to-port="0" />
		<edge from-layer="1082" from-port="0" to-layer="1083" to-port="1" />
		<edge from-layer="1083" from-port="2" to-layer="1084" to-port="0" />
		<edge from-layer="1084" from-port="1" to-layer="1089" to-port="0" />
		<edge from-layer="1085" from-port="0" to-layer="1089" to-port="1" />
		<edge from-layer="1086" from-port="0" to-layer="1089" to-port="2" />
		<edge from-layer="1087" from-port="0" to-layer="1089" to-port="3" />
		<edge from-layer="1088" from-port="0" to-layer="1089" to-port="4" />
		<edge from-layer="1089" from-port="5" to-layer="1094" to-port="0" />
		<edge from-layer="1090" from-port="0" to-layer="1091" to-port="0" />
		<edge from-layer="1091" from-port="1" to-layer="1093" to-port="0" />
		<edge from-layer="1092" from-port="0" to-layer="1093" to-port="1" />
		<edge from-layer="1093" from-port="2" to-layer="1094" to-port="1" />
		<edge from-layer="1094" from-port="2" to-layer="1096" to-port="0" />
		<edge from-layer="1095" from-port="0" to-layer="1096" to-port="1" />
		<edge from-layer="1096" from-port="2" to-layer="1097" to-port="0" />
		<edge from-layer="1097" from-port="1" to-layer="1102" to-port="0" />
		<edge from-layer="1098" from-port="0" to-layer="1102" to-port="1" />
		<edge from-layer="1099" from-port="0" to-layer="1102" to-port="2" />
		<edge from-layer="1100" from-port="0" to-layer="1102" to-port="3" />
		<edge from-layer="1101" from-port="0" to-layer="1102" to-port="4" />
		<edge from-layer="1102" from-port="5" to-layer="1107" to-port="0" />
		<edge from-layer="1103" from-port="0" to-layer="1104" to-port="0" />
		<edge from-layer="1104" from-port="1" to-layer="1106" to-port="0" />
		<edge from-layer="1105" from-port="0" to-layer="1106" to-port="1" />
		<edge from-layer="1106" from-port="2" to-layer="1107" to-port="1" />
		<edge from-layer="1107" from-port="2" to-layer="1109" to-port="0" />
		<edge from-layer="1108" from-port="0" to-layer="1109" to-port="1" />
		<edge from-layer="1109" from-port="2" to-layer="1110" to-port="1" />
		<edge from-layer="1110" from-port="2" to-layer="1118" to-port="0" />
		<edge from-layer="1111" from-port="1" to-layer="1114" to-port="0" />
		<edge from-layer="1112" from-port="0" to-layer="1114" to-port="1" />
		<edge from-layer="1113" from-port="0" to-layer="1114" to-port="2" />
		<edge from-layer="1114" from-port="3" to-layer="1117" to-port="0" />
		<edge from-layer="1115" from-port="0" to-layer="1117" to-port="1" />
		<edge from-layer="1116" from-port="0" to-layer="1117" to-port="2" />
		<edge from-layer="1117" from-port="3" to-layer="1118" to-port="1" />
		<edge from-layer="1117" from-port="3" to-layer="1446" to-port="1" />
		<edge from-layer="1117" from-port="3" to-layer="1282" to-port="1" />
		<edge from-layer="1118" from-port="2" to-layer="1447" to-port="1" />
		<edge from-layer="1119" from-port="0" to-layer="1120" to-port="0" />
		<edge from-layer="1120" from-port="1" to-layer="1122" to-port="0" />
		<edge from-layer="1121" from-port="0" to-layer="1122" to-port="1" />
		<edge from-layer="1122" from-port="2" to-layer="1123" to-port="1" />
		<edge from-layer="1123" from-port="2" to-layer="1125" to-port="0" />
		<edge from-layer="1124" from-port="0" to-layer="1125" to-port="1" />
		<edge from-layer="1125" from-port="2" to-layer="1126" to-port="0" />
		<edge from-layer="1126" from-port="1" to-layer="1131" to-port="0" />
		<edge from-layer="1127" from-port="0" to-layer="1131" to-port="1" />
		<edge from-layer="1128" from-port="0" to-layer="1131" to-port="2" />
		<edge from-layer="1129" from-port="0" to-layer="1131" to-port="3" />
		<edge from-layer="1130" from-port="0" to-layer="1131" to-port="4" />
		<edge from-layer="1131" from-port="5" to-layer="1132" to-port="0" />
		<edge from-layer="1132" from-port="2" to-layer="1137" to-port="0" />
		<edge from-layer="1133" from-port="0" to-layer="1134" to-port="0" />
		<edge from-layer="1134" from-port="1" to-layer="1136" to-port="0" />
		<edge from-layer="1135" from-port="0" to-layer="1136" to-port="1" />
		<edge from-layer="1136" from-port="2" to-layer="1137" to-port="1" />
		<edge from-layer="1137" from-port="2" to-layer="1139" to-port="0" />
		<edge from-layer="1138" from-port="0" to-layer="1139" to-port="1" />
		<edge from-layer="1139" from-port="2" to-layer="1140" to-port="0" />
		<edge from-layer="1140" from-port="1" to-layer="1145" to-port="0" />
		<edge from-layer="1141" from-port="0" to-layer="1145" to-port="1" />
		<edge from-layer="1142" from-port="0" to-layer="1145" to-port="2" />
		<edge from-layer="1143" from-port="0" to-layer="1145" to-port="3" />
		<edge from-layer="1144" from-port="0" to-layer="1145" to-port="4" />
		<edge from-layer="1145" from-port="5" to-layer="1148" to-port="0" />
		<edge from-layer="1146" from-port="0" to-layer="1148" to-port="1" />
		<edge from-layer="1147" from-port="0" to-layer="1148" to-port="2" />
		<edge from-layer="1148" from-port="4" to-layer="1153" to-port="0" />
		<edge from-layer="1148" from-port="3" to-layer="1201" to-port="0" />
		<edge from-layer="1148" from-port="4" to-layer="1201" to-port="1" />
		<edge from-layer="1149" from-port="0" to-layer="1150" to-port="0" />
		<edge from-layer="1150" from-port="1" to-layer="1152" to-port="0" />
		<edge from-layer="1151" from-port="0" to-layer="1152" to-port="1" />
		<edge from-layer="1152" from-port="2" to-layer="1153" to-port="1" />
		<edge from-layer="1153" from-port="2" to-layer="1155" to-port="0" />
		<edge from-layer="1154" from-port="0" to-layer="1155" to-port="1" />
		<edge from-layer="1155" from-port="2" to-layer="1156" to-port="0" />
		<edge from-layer="1156" from-port="1" to-layer="1161" to-port="0" />
		<edge from-layer="1157" from-port="0" to-layer="1161" to-port="1" />
		<edge from-layer="1158" from-port="0" to-layer="1161" to-port="2" />
		<edge from-layer="1159" from-port="0" to-layer="1161" to-port="3" />
		<edge from-layer="1160" from-port="0" to-layer="1161" to-port="4" />
		<edge from-layer="1161" from-port="5" to-layer="1166" to-port="0" />
		<edge from-layer="1162" from-port="0" to-layer="1163" to-port="0" />
		<edge from-layer="1163" from-port="1" to-layer="1165" to-port="0" />
		<edge from-layer="1164" from-port="0" to-layer="1165" to-port="1" />
		<edge from-layer="1165" from-port="2" to-layer="1166" to-port="1" />
		<edge from-layer="1166" from-port="2" to-layer="1168" to-port="0" />
		<edge from-layer="1167" from-port="0" to-layer="1168" to-port="1" />
		<edge from-layer="1168" from-port="2" to-layer="1169" to-port="0" />
		<edge from-layer="1169" from-port="1" to-layer="1174" to-port="0" />
		<edge from-layer="1170" from-port="0" to-layer="1174" to-port="1" />
		<edge from-layer="1171" from-port="0" to-layer="1174" to-port="2" />
		<edge from-layer="1172" from-port="0" to-layer="1174" to-port="3" />
		<edge from-layer="1173" from-port="0" to-layer="1174" to-port="4" />
		<edge from-layer="1174" from-port="5" to-layer="1201" to-port="2" />
		<edge from-layer="1174" from-port="5" to-layer="1179" to-port="0" />
		<edge from-layer="1175" from-port="0" to-layer="1176" to-port="0" />
		<edge from-layer="1176" from-port="1" to-layer="1178" to-port="0" />
		<edge from-layer="1177" from-port="0" to-layer="1178" to-port="1" />
		<edge from-layer="1178" from-port="2" to-layer="1179" to-port="1" />
		<edge from-layer="1179" from-port="2" to-layer="1181" to-port="0" />
		<edge from-layer="1180" from-port="0" to-layer="1181" to-port="1" />
		<edge from-layer="1181" from-port="2" to-layer="1182" to-port="0" />
		<edge from-layer="1182" from-port="1" to-layer="1187" to-port="0" />
		<edge from-layer="1183" from-port="0" to-layer="1187" to-port="1" />
		<edge from-layer="1184" from-port="0" to-layer="1187" to-port="2" />
		<edge from-layer="1185" from-port="0" to-layer="1187" to-port="3" />
		<edge from-layer="1186" from-port="0" to-layer="1187" to-port="4" />
		<edge from-layer="1187" from-port="5" to-layer="1192" to-port="0" />
		<edge from-layer="1188" from-port="0" to-layer="1189" to-port="0" />
		<edge from-layer="1189" from-port="1" to-layer="1191" to-port="0" />
		<edge from-layer="1190" from-port="0" to-layer="1191" to-port="1" />
		<edge from-layer="1191" from-port="2" to-layer="1192" to-port="1" />
		<edge from-layer="1192" from-port="2" to-layer="1194" to-port="0" />
		<edge from-layer="1193" from-port="0" to-layer="1194" to-port="1" />
		<edge from-layer="1194" from-port="2" to-layer="1195" to-port="0" />
		<edge from-layer="1195" from-port="1" to-layer="1200" to-port="0" />
		<edge from-layer="1196" from-port="0" to-layer="1200" to-port="1" />
		<edge from-layer="1197" from-port="0" to-layer="1200" to-port="2" />
		<edge from-layer="1198" from-port="0" to-layer="1200" to-port="3" />
		<edge from-layer="1199" from-port="0" to-layer="1200" to-port="4" />
		<edge from-layer="1200" from-port="5" to-layer="1201" to-port="3" />
		<edge from-layer="1201" from-port="4" to-layer="1206" to-port="0" />
		<edge from-layer="1202" from-port="0" to-layer="1203" to-port="0" />
		<edge from-layer="1203" from-port="1" to-layer="1205" to-port="0" />
		<edge from-layer="1204" from-port="0" to-layer="1205" to-port="1" />
		<edge from-layer="1205" from-port="2" to-layer="1206" to-port="1" />
		<edge from-layer="1206" from-port="2" to-layer="1208" to-port="0" />
		<edge from-layer="1207" from-port="0" to-layer="1208" to-port="1" />
		<edge from-layer="1208" from-port="2" to-layer="1209" to-port="0" />
		<edge from-layer="1209" from-port="1" to-layer="1214" to-port="0" />
		<edge from-layer="1210" from-port="0" to-layer="1214" to-port="1" />
		<edge from-layer="1211" from-port="0" to-layer="1214" to-port="2" />
		<edge from-layer="1212" from-port="0" to-layer="1214" to-port="3" />
		<edge from-layer="1213" from-port="0" to-layer="1214" to-port="4" />
		<edge from-layer="1214" from-port="5" to-layer="1219" to-port="0" />
		<edge from-layer="1214" from-port="5" to-layer="1287" to-port="0" />
		<edge from-layer="1214" from-port="5" to-layer="1252" to-port="0" />
		<edge from-layer="1215" from-port="0" to-layer="1216" to-port="0" />
		<edge from-layer="1216" from-port="1" to-layer="1218" to-port="0" />
		<edge from-layer="1217" from-port="0" to-layer="1218" to-port="1" />
		<edge from-layer="1218" from-port="2" to-layer="1219" to-port="1" />
		<edge from-layer="1219" from-port="2" to-layer="1221" to-port="0" />
		<edge from-layer="1220" from-port="0" to-layer="1221" to-port="1" />
		<edge from-layer="1221" from-port="2" to-layer="1222" to-port="0" />
		<edge from-layer="1222" from-port="1" to-layer="1227" to-port="0" />
		<edge from-layer="1223" from-port="0" to-layer="1227" to-port="1" />
		<edge from-layer="1224" from-port="0" to-layer="1227" to-port="2" />
		<edge from-layer="1225" from-port="0" to-layer="1227" to-port="3" />
		<edge from-layer="1226" from-port="0" to-layer="1227" to-port="4" />
		<edge from-layer="1227" from-port="5" to-layer="1232" to-port="0" />
		<edge from-layer="1228" from-port="0" to-layer="1229" to-port="0" />
		<edge from-layer="1229" from-port="1" to-layer="1231" to-port="0" />
		<edge from-layer="1230" from-port="0" to-layer="1231" to-port="1" />
		<edge from-layer="1231" from-port="2" to-layer="1232" to-port="1" />
		<edge from-layer="1232" from-port="2" to-layer="1234" to-port="0" />
		<edge from-layer="1233" from-port="0" to-layer="1234" to-port="1" />
		<edge from-layer="1234" from-port="2" to-layer="1235" to-port="0" />
		<edge from-layer="1235" from-port="1" to-layer="1240" to-port="0" />
		<edge from-layer="1236" from-port="0" to-layer="1240" to-port="1" />
		<edge from-layer="1237" from-port="0" to-layer="1240" to-port="2" />
		<edge from-layer="1238" from-port="0" to-layer="1240" to-port="3" />
		<edge from-layer="1239" from-port="0" to-layer="1240" to-port="4" />
		<edge from-layer="1240" from-port="5" to-layer="1245" to-port="0" />
		<edge from-layer="1241" from-port="0" to-layer="1242" to-port="0" />
		<edge from-layer="1242" from-port="1" to-layer="1244" to-port="0" />
		<edge from-layer="1243" from-port="0" to-layer="1244" to-port="1" />
		<edge from-layer="1244" from-port="2" to-layer="1245" to-port="1" />
		<edge from-layer="1245" from-port="2" to-layer="1247" to-port="0" />
		<edge from-layer="1246" from-port="0" to-layer="1247" to-port="1" />
		<edge from-layer="1247" from-port="2" to-layer="1281" to-port="0" />
		<edge from-layer="1248" from-port="0" to-layer="1249" to-port="0" />
		<edge from-layer="1249" from-port="1" to-layer="1251" to-port="0" />
		<edge from-layer="1250" from-port="0" to-layer="1251" to-port="1" />
		<edge from-layer="1251" from-port="2" to-layer="1252" to-port="1" />
		<edge from-layer="1252" from-port="2" to-layer="1254" to-port="0" />
		<edge from-layer="1253" from-port="0" to-layer="1254" to-port="1" />
		<edge from-layer="1254" from-port="2" to-layer="1255" to-port="0" />
		<edge from-layer="1255" from-port="1" to-layer="1260" to-port="0" />
		<edge from-layer="1256" from-port="0" to-layer="1260" to-port="1" />
		<edge from-layer="1257" from-port="0" to-layer="1260" to-port="2" />
		<edge from-layer="1258" from-port="0" to-layer="1260" to-port="3" />
		<edge from-layer="1259" from-port="0" to-layer="1260" to-port="4" />
		<edge from-layer="1260" from-port="5" to-layer="1265" to-port="0" />
		<edge from-layer="1261" from-port="0" to-layer="1262" to-port="0" />
		<edge from-layer="1262" from-port="1" to-layer="1264" to-port="0" />
		<edge from-layer="1263" from-port="0" to-layer="1264" to-port="1" />
		<edge from-layer="1264" from-port="2" to-layer="1265" to-port="1" />
		<edge from-layer="1265" from-port="2" to-layer="1267" to-port="0" />
		<edge from-layer="1266" from-port="0" to-layer="1267" to-port="1" />
		<edge from-layer="1267" from-port="2" to-layer="1268" to-port="0" />
		<edge from-layer="1268" from-port="1" to-layer="1273" to-port="0" />
		<edge from-layer="1269" from-port="0" to-layer="1273" to-port="1" />
		<edge from-layer="1270" from-port="0" to-layer="1273" to-port="2" />
		<edge from-layer="1271" from-port="0" to-layer="1273" to-port="3" />
		<edge from-layer="1272" from-port="0" to-layer="1273" to-port="4" />
		<edge from-layer="1273" from-port="5" to-layer="1278" to-port="0" />
		<edge from-layer="1274" from-port="0" to-layer="1275" to-port="0" />
		<edge from-layer="1275" from-port="1" to-layer="1277" to-port="0" />
		<edge from-layer="1276" from-port="0" to-layer="1277" to-port="1" />
		<edge from-layer="1277" from-port="2" to-layer="1278" to-port="1" />
		<edge from-layer="1278" from-port="2" to-layer="1280" to-port="0" />
		<edge from-layer="1279" from-port="0" to-layer="1280" to-port="1" />
		<edge from-layer="1280" from-port="2" to-layer="1281" to-port="1" />
		<edge from-layer="1281" from-port="2" to-layer="1282" to-port="0" />
		<edge from-layer="1282" from-port="2" to-layer="1447" to-port="2" />
		<edge from-layer="1283" from-port="0" to-layer="1284" to-port="0" />
		<edge from-layer="1284" from-port="1" to-layer="1286" to-port="0" />
		<edge from-layer="1285" from-port="0" to-layer="1286" to-port="1" />
		<edge from-layer="1286" from-port="2" to-layer="1287" to-port="1" />
		<edge from-layer="1287" from-port="2" to-layer="1289" to-port="0" />
		<edge from-layer="1288" from-port="0" to-layer="1289" to-port="1" />
		<edge from-layer="1289" from-port="2" to-layer="1290" to-port="0" />
		<edge from-layer="1290" from-port="1" to-layer="1295" to-port="0" />
		<edge from-layer="1291" from-port="0" to-layer="1295" to-port="1" />
		<edge from-layer="1292" from-port="0" to-layer="1295" to-port="2" />
		<edge from-layer="1293" from-port="0" to-layer="1295" to-port="3" />
		<edge from-layer="1294" from-port="0" to-layer="1295" to-port="4" />
		<edge from-layer="1295" from-port="5" to-layer="1296" to-port="0" />
		<edge from-layer="1296" from-port="2" to-layer="1301" to-port="0" />
		<edge from-layer="1297" from-port="0" to-layer="1298" to-port="0" />
		<edge from-layer="1298" from-port="1" to-layer="1300" to-port="0" />
		<edge from-layer="1299" from-port="0" to-layer="1300" to-port="1" />
		<edge from-layer="1300" from-port="2" to-layer="1301" to-port="1" />
		<edge from-layer="1301" from-port="2" to-layer="1303" to-port="0" />
		<edge from-layer="1302" from-port="0" to-layer="1303" to-port="1" />
		<edge from-layer="1303" from-port="2" to-layer="1304" to-port="0" />
		<edge from-layer="1304" from-port="1" to-layer="1309" to-port="0" />
		<edge from-layer="1305" from-port="0" to-layer="1309" to-port="1" />
		<edge from-layer="1306" from-port="0" to-layer="1309" to-port="2" />
		<edge from-layer="1307" from-port="0" to-layer="1309" to-port="3" />
		<edge from-layer="1308" from-port="0" to-layer="1309" to-port="4" />
		<edge from-layer="1309" from-port="5" to-layer="1312" to-port="0" />
		<edge from-layer="1310" from-port="0" to-layer="1312" to-port="1" />
		<edge from-layer="1311" from-port="0" to-layer="1312" to-port="2" />
		<edge from-layer="1312" from-port="4" to-layer="1365" to-port="1" />
		<edge from-layer="1312" from-port="3" to-layer="1365" to-port="0" />
		<edge from-layer="1312" from-port="4" to-layer="1317" to-port="0" />
		<edge from-layer="1313" from-port="0" to-layer="1314" to-port="0" />
		<edge from-layer="1314" from-port="1" to-layer="1316" to-port="0" />
		<edge from-layer="1315" from-port="0" to-layer="1316" to-port="1" />
		<edge from-layer="1316" from-port="2" to-layer="1317" to-port="1" />
		<edge from-layer="1317" from-port="2" to-layer="1319" to-port="0" />
		<edge from-layer="1318" from-port="0" to-layer="1319" to-port="1" />
		<edge from-layer="1319" from-port="2" to-layer="1320" to-port="0" />
		<edge from-layer="1320" from-port="1" to-layer="1325" to-port="0" />
		<edge from-layer="1321" from-port="0" to-layer="1325" to-port="1" />
		<edge from-layer="1322" from-port="0" to-layer="1325" to-port="2" />
		<edge from-layer="1323" from-port="0" to-layer="1325" to-port="3" />
		<edge from-layer="1324" from-port="0" to-layer="1325" to-port="4" />
		<edge from-layer="1325" from-port="5" to-layer="1330" to-port="0" />
		<edge from-layer="1326" from-port="0" to-layer="1327" to-port="0" />
		<edge from-layer="1327" from-port="1" to-layer="1329" to-port="0" />
		<edge from-layer="1328" from-port="0" to-layer="1329" to-port="1" />
		<edge from-layer="1329" from-port="2" to-layer="1330" to-port="1" />
		<edge from-layer="1330" from-port="2" to-layer="1332" to-port="0" />
		<edge from-layer="1331" from-port="0" to-layer="1332" to-port="1" />
		<edge from-layer="1332" from-port="2" to-layer="1333" to-port="0" />
		<edge from-layer="1333" from-port="1" to-layer="1338" to-port="0" />
		<edge from-layer="1334" from-port="0" to-layer="1338" to-port="1" />
		<edge from-layer="1335" from-port="0" to-layer="1338" to-port="2" />
		<edge from-layer="1336" from-port="0" to-layer="1338" to-port="3" />
		<edge from-layer="1337" from-port="0" to-layer="1338" to-port="4" />
		<edge from-layer="1338" from-port="5" to-layer="1343" to-port="0" />
		<edge from-layer="1338" from-port="5" to-layer="1365" to-port="2" />
		<edge from-layer="1339" from-port="0" to-layer="1340" to-port="0" />
		<edge from-layer="1340" from-port="1" to-layer="1342" to-port="0" />
		<edge from-layer="1341" from-port="0" to-layer="1342" to-port="1" />
		<edge from-layer="1342" from-port="2" to-layer="1343" to-port="1" />
		<edge from-layer="1343" from-port="2" to-layer="1345" to-port="0" />
		<edge from-layer="1344" from-port="0" to-layer="1345" to-port="1" />
		<edge from-layer="1345" from-port="2" to-layer="1346" to-port="0" />
		<edge from-layer="1346" from-port="1" to-layer="1351" to-port="0" />
		<edge from-layer="1347" from-port="0" to-layer="1351" to-port="1" />
		<edge from-layer="1348" from-port="0" to-layer="1351" to-port="2" />
		<edge from-layer="1349" from-port="0" to-layer="1351" to-port="3" />
		<edge from-layer="1350" from-port="0" to-layer="1351" to-port="4" />
		<edge from-layer="1351" from-port="5" to-layer="1356" to-port="0" />
		<edge from-layer="1352" from-port="0" to-layer="1353" to-port="0" />
		<edge from-layer="1353" from-port="1" to-layer="1355" to-port="0" />
		<edge from-layer="1354" from-port="0" to-layer="1355" to-port="1" />
		<edge from-layer="1355" from-port="2" to-layer="1356" to-port="1" />
		<edge from-layer="1356" from-port="2" to-layer="1358" to-port="0" />
		<edge from-layer="1357" from-port="0" to-layer="1358" to-port="1" />
		<edge from-layer="1358" from-port="2" to-layer="1359" to-port="0" />
		<edge from-layer="1359" from-port="1" to-layer="1364" to-port="0" />
		<edge from-layer="1360" from-port="0" to-layer="1364" to-port="1" />
		<edge from-layer="1361" from-port="0" to-layer="1364" to-port="2" />
		<edge from-layer="1362" from-port="0" to-layer="1364" to-port="3" />
		<edge from-layer="1363" from-port="0" to-layer="1364" to-port="4" />
		<edge from-layer="1364" from-port="5" to-layer="1365" to-port="3" />
		<edge from-layer="1365" from-port="4" to-layer="1370" to-port="0" />
		<edge from-layer="1366" from-port="0" to-layer="1367" to-port="0" />
		<edge from-layer="1367" from-port="1" to-layer="1369" to-port="0" />
		<edge from-layer="1368" from-port="0" to-layer="1369" to-port="1" />
		<edge from-layer="1369" from-port="2" to-layer="1370" to-port="1" />
		<edge from-layer="1370" from-port="2" to-layer="1372" to-port="0" />
		<edge from-layer="1371" from-port="0" to-layer="1372" to-port="1" />
		<edge from-layer="1372" from-port="2" to-layer="1373" to-port="0" />
		<edge from-layer="1373" from-port="1" to-layer="1378" to-port="0" />
		<edge from-layer="1374" from-port="0" to-layer="1378" to-port="1" />
		<edge from-layer="1375" from-port="0" to-layer="1378" to-port="2" />
		<edge from-layer="1376" from-port="0" to-layer="1378" to-port="3" />
		<edge from-layer="1377" from-port="0" to-layer="1378" to-port="4" />
		<edge from-layer="1378" from-port="5" to-layer="1416" to-port="0" />
		<edge from-layer="1378" from-port="5" to-layer="1383" to-port="0" />
		<edge from-layer="1379" from-port="0" to-layer="1380" to-port="0" />
		<edge from-layer="1380" from-port="1" to-layer="1382" to-port="0" />
		<edge from-layer="1381" from-port="0" to-layer="1382" to-port="1" />
		<edge from-layer="1382" from-port="2" to-layer="1383" to-port="1" />
		<edge from-layer="1383" from-port="2" to-layer="1385" to-port="0" />
		<edge from-layer="1384" from-port="0" to-layer="1385" to-port="1" />
		<edge from-layer="1385" from-port="2" to-layer="1386" to-port="0" />
		<edge from-layer="1386" from-port="1" to-layer="1391" to-port="0" />
		<edge from-layer="1387" from-port="0" to-layer="1391" to-port="1" />
		<edge from-layer="1388" from-port="0" to-layer="1391" to-port="2" />
		<edge from-layer="1389" from-port="0" to-layer="1391" to-port="3" />
		<edge from-layer="1390" from-port="0" to-layer="1391" to-port="4" />
		<edge from-layer="1391" from-port="5" to-layer="1396" to-port="0" />
		<edge from-layer="1392" from-port="0" to-layer="1393" to-port="0" />
		<edge from-layer="1393" from-port="1" to-layer="1395" to-port="0" />
		<edge from-layer="1394" from-port="0" to-layer="1395" to-port="1" />
		<edge from-layer="1395" from-port="2" to-layer="1396" to-port="1" />
		<edge from-layer="1396" from-port="2" to-layer="1398" to-port="0" />
		<edge from-layer="1397" from-port="0" to-layer="1398" to-port="1" />
		<edge from-layer="1398" from-port="2" to-layer="1399" to-port="0" />
		<edge from-layer="1399" from-port="1" to-layer="1404" to-port="0" />
		<edge from-layer="1400" from-port="0" to-layer="1404" to-port="1" />
		<edge from-layer="1401" from-port="0" to-layer="1404" to-port="2" />
		<edge from-layer="1402" from-port="0" to-layer="1404" to-port="3" />
		<edge from-layer="1403" from-port="0" to-layer="1404" to-port="4" />
		<edge from-layer="1404" from-port="5" to-layer="1409" to-port="0" />
		<edge from-layer="1405" from-port="0" to-layer="1406" to-port="0" />
		<edge from-layer="1406" from-port="1" to-layer="1408" to-port="0" />
		<edge from-layer="1407" from-port="0" to-layer="1408" to-port="1" />
		<edge from-layer="1408" from-port="2" to-layer="1409" to-port="1" />
		<edge from-layer="1409" from-port="2" to-layer="1411" to-port="0" />
		<edge from-layer="1410" from-port="0" to-layer="1411" to-port="1" />
		<edge from-layer="1411" from-port="2" to-layer="1445" to-port="0" />
		<edge from-layer="1412" from-port="0" to-layer="1413" to-port="0" />
		<edge from-layer="1413" from-port="1" to-layer="1415" to-port="0" />
		<edge from-layer="1414" from-port="0" to-layer="1415" to-port="1" />
		<edge from-layer="1415" from-port="2" to-layer="1416" to-port="1" />
		<edge from-layer="1416" from-port="2" to-layer="1418" to-port="0" />
		<edge from-layer="1417" from-port="0" to-layer="1418" to-port="1" />
		<edge from-layer="1418" from-port="2" to-layer="1419" to-port="0" />
		<edge from-layer="1419" from-port="1" to-layer="1424" to-port="0" />
		<edge from-layer="1420" from-port="0" to-layer="1424" to-port="1" />
		<edge from-layer="1421" from-port="0" to-layer="1424" to-port="2" />
		<edge from-layer="1422" from-port="0" to-layer="1424" to-port="3" />
		<edge from-layer="1423" from-port="0" to-layer="1424" to-port="4" />
		<edge from-layer="1424" from-port="5" to-layer="1429" to-port="0" />
		<edge from-layer="1425" from-port="0" to-layer="1426" to-port="0" />
		<edge from-layer="1426" from-port="1" to-layer="1428" to-port="0" />
		<edge from-layer="1427" from-port="0" to-layer="1428" to-port="1" />
		<edge from-layer="1428" from-port="2" to-layer="1429" to-port="1" />
		<edge from-layer="1429" from-port="2" to-layer="1431" to-port="0" />
		<edge from-layer="1430" from-port="0" to-layer="1431" to-port="1" />
		<edge from-layer="1431" from-port="2" to-layer="1432" to-port="0" />
		<edge from-layer="1432" from-port="1" to-layer="1437" to-port="0" />
		<edge from-layer="1433" from-port="0" to-layer="1437" to-port="1" />
		<edge from-layer="1434" from-port="0" to-layer="1437" to-port="2" />
		<edge from-layer="1435" from-port="0" to-layer="1437" to-port="3" />
		<edge from-layer="1436" from-port="0" to-layer="1437" to-port="4" />
		<edge from-layer="1437" from-port="5" to-layer="1442" to-port="0" />
		<edge from-layer="1438" from-port="0" to-layer="1439" to-port="0" />
		<edge from-layer="1439" from-port="1" to-layer="1441" to-port="0" />
		<edge from-layer="1440" from-port="0" to-layer="1441" to-port="1" />
		<edge from-layer="1441" from-port="2" to-layer="1442" to-port="1" />
		<edge from-layer="1442" from-port="2" to-layer="1444" to-port="0" />
		<edge from-layer="1443" from-port="0" to-layer="1444" to-port="1" />
		<edge from-layer="1444" from-port="2" to-layer="1445" to-port="1" />
		<edge from-layer="1445" from-port="2" to-layer="1446" to-port="0" />
		<edge from-layer="1446" from-port="2" to-layer="1447" to-port="3" />
		<edge from-layer="1447" from-port="4" to-layer="1450" to-port="0" />
		<edge from-layer="1448" from-port="0" to-layer="1472" to-port="1" />
		<edge from-layer="1448" from-port="0" to-layer="1450" to-port="1" />
		<edge from-layer="1448" from-port="0" to-layer="1483" to-port="1" />
		<edge from-layer="1449" from-port="0" to-layer="1450" to-port="2" />
		<edge from-layer="1450" from-port="3" to-layer="1454" to-port="0" />
		<edge from-layer="1450" from-port="3" to-layer="1459" to-port="0" />
		<edge from-layer="1450" from-port="4" to-layer="1493" to-port="0" />
		<edge from-layer="1451" from-port="0" to-layer="1458" to-port="0" />
		<edge from-layer="1452" from-port="0" to-layer="1458" to-port="1" />
		<edge from-layer="1452" from-port="0" to-layer="1468" to-port="1" />
		<edge from-layer="1453" from-port="0" to-layer="1458" to-port="2" />
		<edge from-layer="1454" from-port="1" to-layer="1457" to-port="0" />
		<edge from-layer="1454" from-port="1" to-layer="1467" to-port="0" />
		<edge from-layer="1455" from-port="0" to-layer="1457" to-port="1" />
		<edge from-layer="1456" from-port="0" to-layer="1457" to-port="2" />
		<edge from-layer="1457" from-port="3" to-layer="1458" to-port="3" />
		<edge from-layer="1457" from-port="3" to-layer="1468" to-port="2" />
		<edge from-layer="1458" from-port="4" to-layer="1459" to-port="1" />
		<edge from-layer="1459" from-port="2" to-layer="1461" to-port="0" />
		<edge from-layer="1460" from-port="0" to-layer="1461" to-port="1" />
		<edge from-layer="1461" from-port="2" to-layer="1462" to-port="0" />
		<edge from-layer="1462" from-port="1" to-layer="1464" to-port="0" />
		<edge from-layer="1463" from-port="0" to-layer="1464" to-port="1" />
		<edge from-layer="1464" from-port="2" to-layer="1469" to-port="0" />
		<edge from-layer="1465" from-port="0" to-layer="1467" to-port="1" />
		<edge from-layer="1466" from-port="0" to-layer="1467" to-port="2" />
		<edge from-layer="1467" from-port="3" to-layer="1468" to-port="0" />
		<edge from-layer="1468" from-port="3" to-layer="1469" to-port="1" />
		<edge from-layer="1469" from-port="2" to-layer="1470" to-port="0" />
		<edge from-layer="1469" from-port="2" to-layer="1483" to-port="0" />
		<edge from-layer="1470" from-port="1" to-layer="1472" to-port="0" />
		<edge from-layer="1471" from-port="0" to-layer="1472" to-port="2" />
		<edge from-layer="1471" from-port="0" to-layer="1476" to-port="1" />
		<edge from-layer="1472" from-port="3" to-layer="1474" to-port="0" />
		<edge from-layer="1472" from-port="3" to-layer="1475" to-port="0" />
		<edge from-layer="1473" from-port="0" to-layer="1474" to-port="1" />
		<edge from-layer="1473" from-port="0" to-layer="1475" to-port="1" />
		<edge from-layer="1474" from-port="2" to-layer="1478" to-port="0" />
		<edge from-layer="1475" from-port="2" to-layer="1476" to-port="0" />
		<edge from-layer="1476" from-port="2" to-layer="1477" to-port="0" />
		<edge from-layer="1477" from-port="1" to-layer="1478" to-port="1" />
		<edge from-layer="1478" from-port="2" to-layer="1480" to-port="0" />
		<edge from-layer="1479" from-port="0" to-layer="1480" to-port="1" />
		<edge from-layer="1480" from-port="2" to-layer="1482" to-port="0" />
		<edge from-layer="1481" from-port="0" to-layer="1482" to-port="1" />
		<edge from-layer="1482" from-port="2" to-layer="1483" to-port="2" />
		<edge from-layer="1483" from-port="4" to-layer="1485" to-port="1" />
		<edge from-layer="1483" from-port="3" to-layer="1484" to-port="1" />
		<edge from-layer="1484" from-port="2" to-layer="1486" to-port="0" />
		<edge from-layer="1484" from-port="2" to-layer="1489" to-port="1" />
		<edge from-layer="1485" from-port="2" to-layer="1486" to-port="1" />
		<edge from-layer="1485" from-port="2" to-layer="1489" to-port="0" />
		<edge from-layer="1486" from-port="2" to-layer="1488" to-port="0" />
		<edge from-layer="1487" from-port="0" to-layer="1488" to-port="1" />
		<edge from-layer="1488" from-port="2" to-layer="1490" to-port="0" />
		<edge from-layer="1489" from-port="2" to-layer="1490" to-port="1" />
		<edge from-layer="1490" from-port="2" to-layer="1492" to-port="0" />
		<edge from-layer="1491" from-port="0" to-layer="1492" to-port="1" />
		<edge from-layer="1492" from-port="2" to-layer="1494" to-port="0" />
		<edge from-layer="1493" from-port="1" to-layer="1494" to-port="1" />
		<edge from-layer="1494" from-port="2" to-layer="1495" to-port="0" />
	</edges>
	<rt_info>
		<Runtime_version value="2024.1.0-15008-f4afc983258-releases/2024/1" />
		<conversion_parameters>
			<framework value="pytorch" />
			<is_python_object value="True" />
		</conversion_parameters>
		<model_info>
			<iou_threshold value="0.7" />
			<labels value="      23  " />
			<model_type value="YOLOv8" />
			<pad_value value="114" />
			<resize_type value="fit_to_window_letterbox" />
			<reverse_input_channels value="YES" />
			<scale_values value="255" />
		</model_info>
		<nncf>
			<quantization>
				<advanced_parameters value="{}" />
				<fast_bias_correction value="True" />
				<ignored_scope>
					<names value="[]" />
					<patterns value="['.*model.28/.*/Add', '.*model.28/.*/Sub*', '.*model.28/.*/Mul*', '.*model.28/.*/Div*', '.*model.28\\.dfl.*']" />
					<types value="['Sigmoid']" />
					<validate value="True" />
				</ignored_scope>
				<model_type value="None" />
				<preset value="QuantizationPreset.MIXED" />
				<subset_size value="300" />
				<target_device value="ANY" />
			</quantization>
		</nncf>
	</rt_info>
</net>
